models/Expert/actor.pth (torch, 536948 bytes, 5 tensors)

input_layer.weight f4 [512, 3]
000000 e4 44 8b 3e 05 fb 31 3f 2b ef 8c be 76 05 25 3f
       0.27200997 0.6952365 -0.2752622 0.6446146
000010 46 97 8a bd c3 46 62 3e f4 60 0f 3e 95 64 35 3f
       -0.06767134 0.22097306 0.14001828 0.708566
000020 55 7a c7 3e c4 67 06 bf 57 93 61 3f 40 d5 1e 3c
       0.3896052 -0.52502084 0.8811545 0.009694397
000030 8a ce 3b 3f 7b 1f ad 3d 3b 36 a6 3e d5 ae 1f be
       0.7336203 0.0845327 0.3246325 -0.15594037
000040 14 06 42 3f 8d 4b 10 bd 42 a0 cf be eb d5 4f bd
       0.75790524 -0.0352283 -0.40551955 -0.050741117
000050 e1 95 30 be 03 5d 5d be c2 61 e9 bd 78 18 c1 3e
       -0.17244674 -0.21617512 -0.11395599 0.3771398
000060 ad 9d e9 be 2f 83 d3 be 42 ba 2f bc db 2e d6 be
       -0.4562811 -0.41311023 -0.01072556 -0.41832623
000070 0e ab 20 3e a0 fe ff be 30 da 82 3e 75 e7 a3 be
       0.15690252 -0.4999895 0.2555709 -0.32012525
000080 4c b2 e3 3e 31 1a c8 3d e2 5a de bd 75 da bb 3e
       0.44471967 0.097706206 -0.10857178 0.36690107
000090 88 06 2d 3e 62 f7 fe 3e af 94 19 3e 90 8b c9 bc
       0.16897023 0.49798113 0.14998125 -0.024602681
0000a0 c2 d1 5e 3e 34 46 1c be 82 11 9b 3e 05 32 3f 3f
       0.21759704 -0.15261155 0.30286795 0.746857
0000b0 71 7e 8b 3e 11 d4 0c bf e3 da cd 3e a4 7e d6 bd
       0.27244905 -0.5501109 0.4020606 -0.104733735
0000c0 17 d0 83 3e 29 67 27 bf 0f e7 e7 be dd a7 23 bf
       0.25744697 -0.65391785 -0.4529347 -0.63928014
0000d0 9f 1d b6 be a0 9c e2 3e 2e fa 82 3d dc a5 2b 3f
       -0.35569474 0.4426012 0.06395374 0.67049956
0000e0 b3 63 27 3e 99 31 74 3d 48 39 02 3f 12 78 d3 be
       0.16346626 0.059617613 0.50868654 -0.41302544
0000f0 2c 10 69 be 82 07 81 bd db 5b 6a 3e b9 74 0c be
       -0.22760075 -0.0630026 0.22886603 -0.13716401
000100 3d 5f 6a 3e aa d3 17 be bf 03 2d 3f 0f dc ea be
       0.22887893 -0.14826837 0.6758384 -0.45871016
000110 b7 67 97 be 1c 23 ff be 2a b5 68 3f 48 6c 24 3d
       -0.29571316 -0.49831474 0.90901434 0.040142328
000120 20 21 37 3f 3c e8 8f bf 44 2c a1 be ff 0a d2 be
       0.7153492 -1.1242747 -0.31479084 -0.41024014
000130 ff 87 96 be 68 af 69 3e 86 6e 96 3e 18 c7 09 3f
       -0.29400632 0.22820818 0.29381198 0.5381942
000140 19 7d 63 be dd 51 af be bf 39 a8 3e 7a 93 3a be
       -0.2221569 -0.34242144 0.32856557 -0.1822032
000150 fc a7 0e 3f 4d 92 da bc 8f 81 b2 3e 89 6b 04 bf
       0.55725074 -0.02668109 0.3486447 -0.51726586
000160 f2 15 c5 bd d1 bb 58 3e 2d b7 4f be c4 95 06 3e
       -0.09623326 0.21165396 -0.2028472 0.13143069
000170 d7 74 8b 3e 4c ee f8 3e f7 81 80 bf 74 0b 12 be
       0.2723758 0.48619306 -1.0039662 -0.14262182
000180 50 2f 35 3f 05 43 54 be cf e2 fd bd fb 35 4e bf
       0.7077532 -0.20728691 -0.12396776 -0.8055112
000190 85 a0 85 be 99 b5 12 3e 00 ba 25 be a6 06 a8 be
       -0.2609903 0.14327087 -0.16184235 -0.32817572
0001a0 5a c8 17 3d fb 11 d6 be fb 0b 82 bf 29 a3 34 be
       0.037056305 -0.41810593 -1.0159906 -0.17640366
0001b0 95 6d 36 bf 23 79 5f bd 85 57 0a 3f fc 3d 2e 3f
       -0.7126096 -0.054558884 0.54039794 0.6806333
0001c0 2d 6a 1b 3d c2 71 b5 be 20 b6 3f bf d4 0c 91 3e
       0.037943054 -0.35438353 -0.74887276 0.283301
0001d0 9b 61 05 3e 65 cd d2 be 25 a7 65 bf ac 48 57 be
       0.13025515 -0.4117233 -0.8970817 -0.21023816
0001e0 4b 09 94 bd 6a 15 9f be 13 dd 14 be 3a a1 0a bf
       -0.07228335 -0.31071025 -0.14537458 -0.5415226
0001f0 d3 47 76 bf 48 47 70 be be d9 ea 3d 9e 0f c1 be
       -0.96203345 -0.23464692 0.11467312 -0.37707227
000200 16 31 03 3f e5 8d 24 bd ce 65 67 3f 46 84 be 3c
       0.51246774 -0.040174384 0.90389717 0.023256432
000210 55 da 3b bf f0 b6 23 3f d5 c8 bc 3c 6b 79 27 be
       -0.73380023 0.63951015 0.023044983 -0.16354911
000220 e1 27 92 bf c6 37 b9 be 5d 3b c0 3e 5e 0d 9a be
       -1.141842 -0.36175364 0.3754529 -0.30088323
000230 2a 82 84 3e 22 a3 44 bf bd c3 af 3e 40 13 ef be
       0.25880557 -0.7681142 0.34329024 -0.46694374
000240 dd 17 1e be ba d3 7e 3f 30 c0 5c 3e 4b ec 7a 3e
       -0.1543879 0.9954182 0.21557689 0.24504201
000250 ac bb b1 3e 4f a3 05 bf 74 7f 48 bd cc c9 9e be
       0.34713495 -0.52202314 -0.048949674 -0.31013334
000260 db 7d 95 3d 79 e9 27 bf 0b c7 b3 3e 48 cc c6 be
       0.07299396 -0.65590626 0.35112795 -0.3882773
000270 6b 69 d7 3d 99 66 26 3f 09 37 21 3d 56 d6 a4 be
       0.10518154 0.650003 0.039359126 -0.32194775
000280 e8 19 24 3f ab 08 7c 3d 32 d6 52 be 65 ed 3c be
       0.6410203 0.061531704 -0.20589522 -0.18449934
000290 76 62 ac 3e 85 f0 0a be e4 e0 56 bd 32 ba f9 3e
       0.3366887 -0.13568313 -0.052460566 0.48774868
0002a0 cf 85 f5 3d fe 83 44 bf 20 7f c2 bd 65 6c 64 3d
       0.119884126 -0.76763904 -0.094969034 0.055767436
0002b0 39 64 a7 3e e4 19 0f be 80 f0 fa be b0 f2 70 bf
       0.3269365 -0.1397472 -0.49011612 -0.9412031
0002c0 84 0b 6a be e7 9d 29 3f 5b 2e 84 3e 06 1a c8 be
       -0.22855955 0.66256565 0.25816616 -0.39082354
0002d0 67 1f e0 3d 68 32 40 3f 98 ac 17 3e d7 0d d1 bd
       0.109434895 0.75076914 0.14811933 -0.10207718
0002e0 5e 12 2e 3f 66 24 78 3e e9 c0 3c 3e 6d 51 14 be
       0.67996776 0.24232635 0.18432964 -0.14484186
0002f0 e7 a3 5b be 44 2c 9a bd 07 19 39 bf 84 16 c0 bd
       -0.21449243 -0.07527974 -0.72303814 -0.093792945
000300 6a 5a d8 3e ad ca 29 3f 48 f7 92 3c 4d e2 e5 be
       0.4225648 0.66324884 0.017940179 -0.44899216
000310 6a 22 62 3e c6 fa 12 bc ad 3e 9b 3e b9 a6 e3 3d
       0.2208344 -0.008970922 0.30321255 0.11115784
000320 07 11 01 bf 82 d2 b4 bd 6b da 8b 3f e7 56 c4 3d
       -0.50416607 -0.08829214 1.0926031 0.09586888
000330 d0 65 4e be d5 ec 94 bf 11 21 34 be c9 ee 4a bf
       -0.20156026 -1.1634775 -0.17590739 -0.7927061
000340 a5 19 bf 3e 52 b7 19 3e 6b 05 db 3e f3 89 7b 3e
       0.37324253 0.15011337 0.4277757 0.24564342
000350 3c 5c fa be d3 20 d4 be 25 67 a4 3e 0f 89 01 3f
       -0.48898494 -0.41431293 0.32109943 0.5059976
000360 08 92 5a 3d 3e 19 90 bd 48 b9 62 3e 0b bd 75 be
       0.053361923 -0.070360646 0.22140992 -0.23997895
000370 fd 50 ec be d3 a8 c8 3e 1c bf 88 be d3 a6 65 be
       -0.4615554 0.39191303 -0.26708305 -0.2242692
000380 45 3c 14 bf 19 ae 98 3e ce da 36 3f fa 66 fd 3d
       -0.57904464 0.29820326 0.7142762 0.12373157
000390 89 11 db be 3b ca aa bf 2d a4 93 be 9c 43 30 3f
       -0.42786816 -1.3342966 -0.28836194 0.68853164
0003a0 e0 74 ae 3e 6f 33 fa 3e 9e 18 f5 3e 0b 4b b9 bd
       0.34073544 0.48867366 0.47870344 -0.090475164
0003b0 89 3f ef bc 08 63 97 be 3a cf 9d bf 4c ed b3 be
       -0.0292051 -0.29567742 -1.2328866 -0.3514198
0003c0 5e 3e c9 3e a9 cf e4 be 97 c1 24 3d 3a 1e 7d be
       0.39305395 -0.44689682 0.040223684 -0.24718562
0003d0 f4 78 23 be 4d c8 e6 be 6c f7 f8 be bd ef 08 3e
       -0.15964109 -0.45074692 -0.48626268 0.13372703
0003e0 7d 6f 84 be 1d e9 0d 3f 65 5e c0 be 4b de a9 be
       -0.2586631 0.5543383 -0.37572017 -0.3317741
0003f0 45 4b 32 bc a3 17 89 bf f8 41 7a be b4 e7 e7 be
       -0.0108822035 -1.0710338 -0.24439228 -0.45293963

input_layer.bias f4 [512]
000000 e5 16 93 3e 6a e7 0d be 41 7e d7 be a3 41 1c be
       0.28728405 -0.13857809 -0.42088512 -0.15259413
000010 df df 15 be 5b 09 08 3f 82 4f bc 3e e5 be 16 3f
       -0.14636181 0.53139275 0.3677941 0.5888503
000020 a6 83 48 3e 8e c9 2b 3e 23 ab 9a 3e 04 d2 9b 3d
       0.1958147 0.16776106 0.30208692 0.07608417
000030 cf 3d e2 be 38 8d ec be a5 52 ae bc 3d d9 13 be
       -0.4418778 -0.4620149 -0.021279642 -0.14438339
000040 30 79 ba 3e 59 f3 2b 3e da 0f dc 3e 5f 66 92 3e
       0.36420584 0.16792049 0.42980844 0.28593728
000050 0b 98 12 be bb b4 02 bf 07 ec fc be da d0 9f be
       -0.14315812 -0.5105702 -0.49398825 -0.3121403
000060 b4 97 1d bd 40 66 a8 3e fe a9 1b 3f d2 55 4b be
       -0.038474753 0.3289051 0.6080626 -0.19856957
000070 9a bc ef bc df c6 54 bd bb d4 a6 3d cf f3 4c 3e
       -0.029264737 -0.05194747 0.08146044 0.2001488
000080 dc 8b 80 3d 00 dd ab 3d 12 40 93 3e 0a 69 ca 3e
       0.06276676 0.08391762 0.2875982 0.39533263
000090 5e c1 80 be 94 4f 11 bf 1e c0 10 3e 20 4e aa 3d
       -0.25147527 -0.5676205 0.14135787 0.083156824
0000a0 4e 07 59 be 8e af 36 3e 61 13 cd 3d ba 97 fc 3c
       -0.21194193 0.17840406 0.10013462 0.030834068
0000b0 7b 62 b3 be 1f 82 e2 bd 32 f7 22 bf 7f 8a 55 3e
       -0.35036072 -0.11059975 -0.6365844 0.20853613
0000c0 75 8c ae 3c 0a 41 cf 3e 10 78 0e 3c a1 e1 38 3e
       0.02130721 0.40479308 0.008695617 0.1805482
0000d0 d3 f0 58 3e 96 76 e8 3e 58 37 9c be 13 bf d0 3e
       0.21185617 0.45402974 -0.30510974 0.40770778
0000e0 0f 93 7a 3e b2 eb 09 bf f5 87 21 3e 0e e8 03 bf
       0.24470161 -0.5387527 0.1577452 -0.5152596
0000f0 30 bd ff 3c 26 99 39 be 36 df d7 be 14 0d c8 3e
       0.031218141 -0.18124828 -0.42162484 0.39072478
000100 f9 9d e4 be 76 0a ba 3e 4e 1a 1f bf e3 77 26 3d
       -0.44651774 0.36336106 -0.6214951 0.040641677
000110 33 3b 51 3e 3a c6 46 3e f5 2b d3 be c6 f0 b1 3d
       0.20432739 0.19411555 -0.41244474 0.08688502
000120 8d 60 ca 3c ad 93 b3 3e 37 de c4 bc 69 61 69 3e
       0.024704242 0.35073605 -0.024031742 0.22791065
000130 c4 f1 99 be b3 63 0b bf 31 36 fd 3e f0 4a 40 be
       -0.30067265 -0.54449004 0.49455407 -0.18778586
000140 95 d1 93 bd 54 b5 43 bd 65 c5 30 3f f2 4f c1 be
       -0.07217709 -0.04778035 0.690512 -0.37756306
000150 48 b2 56 be a7 a0 59 be ef fc ac 3d 01 7d d0 3e
       -0.20966446 -0.2125269 0.08446681 0.4072037
000160 c3 86 07 3f ca a6 97 bb 41 8e 9c 3e 14 39 f8 be
       0.52940005 -0.004628037 0.3057728 -0.48481047
000170 fe c8 a7 3e 89 91 9e 3e 30 9d ce 3e 91 f4 a5 be
       0.32770532 0.3097041 0.403543 -0.32413152
000180 7c b2 7b bd 1b 3a dd 3d fb 4e 1b bf 23 de f0 be
       -0.061449513 0.10802098 -0.6066739 -0.47044477
000190 8a ef 16 bf 4c a8 e8 3d 74 ba f7 3e 7c a2 a3 3d
       -0.5895926 0.11360225 0.4838444 0.07989976
0001a0 55 37 c7 3d b9 68 06 3e cb 3d ec bd 38 80 36 bd
       0.097273506 0.13125886 -0.115352236 -0.044555873
0001b0 99 f0 04 be ec 55 d9 bd 6d 80 17 3f 75 d3 f7 be
       -0.12982406 -0.106120914 0.5918034 -0.48403516
0001c0 a4 65 c4 bc 74 eb fa be 6a 94 1e bd a3 13 67 be
       -0.023974247 -0.4900776 -0.038715757 -0.22566085
0001d0 0d fd b3 3c 2c 88 b1 be 19 89 9f 3e 2b ae f4 be
       0.02197125 -0.34674203 0.31159285 -0.4778913
0001e0 84 ff f7 3e 78 85 3a be 77 7f ba 3e fd 8d 3b be
       0.4843713 -0.18214977 0.36425373 -0.18315883
0001f0 8a 71 27 3e e5 d4 12 be d4 b3 d2 3e 55 16 a5 bc
       0.16351905 -0.14339025 0.41152823 -0.02015225
000200 30 4f 43 bf fc 7f 9d bc 16 d7 e7 be 9a 9b 3d 3e
       -0.76292706 -0.019226067 -0.45281285 0.18516389
000210 bc e0 35 3e 8b 74 62 be 62 e0 a8 be 39 58 21 3e
       0.1776151 -0.2211477 -0.3298369 0.1575631
000220 34 e4 c2 be be fb b1 3e f9 90 b8 3d 24 68 a0 3e
       -0.3806473 0.34762377 0.09012026 0.31329453
000230 b2 05 30 bc 48 f4 e8 be 4c 64 cc 3e 57 30 58 bd
       -0.010743545 -0.45498872 0.3992027 -0.052780475
000240 f2 57 60 be 36 14 21 3e 23 24 09 3f af 2b e2 3e
       -0.21908548 0.15730366 0.53570765 0.44173953
000250 65 17 e7 3c f4 bb e9 3e 1d 3d 27 bf b3 7e 5b 3d
       0.028209398 0.4565121 -0.65327626 0.053587627
000260 68 b3 12 bf 4c 9a 39 3e 33 30 e9 be b8 90 16 be
       -0.57305 0.18125266 -0.45544586 -0.14703643
000270 58 37 fd 3e da 83 3a 3f f5 22 70 be 6b 2d b3 be
       0.49456286 0.7285744 -0.23450835 -0.3499559
000280 92 23 b9 bc 98 88 ee 3d 05 c9 39 be 3f 6f dd bd
       -0.022599969 0.11647147 -0.18143089 -0.10812234
000290 49 2a c2 be b8 ab 1e 3e 76 f0 06 3f b5 7e a2 be
       -0.37922886 0.15495193 0.52710664 -0.31737295
0002a0 a1 18 e9 3e 9a 00 89 3e 20 e1 09 3f c5 54 ed bd
       0.45526603 0.2675827 0.5385914 -0.11588434
0002b0 00 18 12 3b 9d f4 dc 3e 23 45 a8 3e a7 d8 11 3f
       0.0022292137 0.43155375 0.32865247 0.5697121
0002c0 96 8a 64 be b6 3d bb 3d 61 d1 93 3e 54 07 0c bf
       -0.22318491 0.0914263 0.2887068 -0.5469868
0002d0 c1 4b 14 3e c5 20 be 3d 4e 79 c3 3e 99 0a a3 be
       0.14482023 0.09283594 0.38178486 -0.31844023
0002e0 02 e3 6a bc 6d 83 ae 3e c5 92 0a bf 28 20 23 bf
       -0.014336349 0.34084645 -0.541302 -0.6372094
0002f0 33 10 50 3b 58 93 dc 3e 7b 73 07 3f e5 53 c7 be
       0.0031747937 0.43081164 0.52910584 -0.38931194
000300 95 e0 0b bd 3a f2 85 be e8 f6 92 bd 0c e8 06 3f
       -0.034149725 -0.26161367 -0.07176 0.52697825
000310 09 a6 7f 3e 57 c5 e5 3b 8f 08 64 3e ef 5a f2 3d
       0.24965681 0.00701205 0.2226889 0.118337505
000320 ff fb 94 3e b9 b3 ac bc 6b 71 b3 be e4 d1 a2 3e
       0.29098508 -0.021081792 -0.3504747 0.3180076
000330 20 ee 62 3e 09 f9 8a 3e 41 e2 96 be b1 2f 2d 3e
       0.2216115 0.27143124 -0.29469493 0.16912724
000340 56 d1 c6 3e 40 df a0 3e b1 5d ab 3e 66 7c 26 3f
       0.38831586 0.31420326 0.33469918 0.65033567
000350 ca a5 66 3e 80 79 39 be fa fa 35 3f 1e 6f 17 3f
       0.22524181 -0.18112755 0.71086085 0.59153926
000360 85 d9 61 be 45 96 01 3f 4c f6 ba 3e 07 85 60 bd
       -0.22055633 0.5061992 0.36516035 -0.054814365
000370 d8 35 50 3e 37 e8 84 be 4b db b8 3e 07 e1 db 3e
       0.2033304 -0.25958416 0.36104807 0.4294512
000380 3d ad 17 bf 45 d2 a4 be 7e bc 08 bf 63 45 7b bd
       -0.59248716 -0.32191673 -0.53412616 -0.06134547
000390 c6 1b 3f bf 38 d9 19 be 0a 11 96 3e d4 92 e9 3e
       -0.74651754 -0.15024269 0.29309875 0.45619833
0003a0 db 78 0e 3f a8 25 3a 3f 32 0b 8b 3e 83 29 3a be
       0.5565316 0.7271371 0.2715698 -0.18179898
0003b0 f2 c2 9b be 98 6b e1 bb bf ed 05 3f 03 09 3e 3e
       -0.3042217 -0.0068792813 0.52315897 0.18558125
0003c0 98 e5 0b 3e 8f 6b ec be 90 1e b0 be 87 86 44 bf
       0.13661802 -0.4617581 -0.34398317 -0.7676777
0003d0 20 d9 0d 3f 18 68 b4 be 86 42 db be d2 7e 1b 3e
       0.5540943 -0.35235667 -0.4282419 0.15185097
0003e0 84 0e e2 bc 6e af 07 be b4 d7 69 3e 71 04 c9 3e
       -0.027594812 -0.13250515 0.2283619 0.392612
0003f0 f2 94 29 bf 34 45 d7 be f6 ff 9a 3c 07 07 22 bf
       -0.662429 -0.42044985 0.01892088 -0.6329197

hidden_layer_1.weight f4 [256, 512]
000000 a5 79 9e 3c b3 b1 28 3c 51 e0 55 bc 56 44 64 3c
       0.019345114 0.010296273 -0.0130539695 0.013932308
000010 17 56 6c 3c c9 9b 37 bd 00 c6 fb bc 06 39 0e bb
       0.014424822 -0.044826303 -0.030734062 -0.002170147
000020 05 1c 34 3c f0 b0 91 3c 33 1c e5 bc db 49 3f bd
       0.0109930085 0.017784566 -0.027967548 -0.046701293
000030 ce 81 81 bb ff 4e 1f bc 8b 78 17 3c 4c 83 95 bc
       -0.0039522415 -0.009723424 0.009245048 -0.018251084
000040 12 6f 0d 3d dc 6f 42 ba 26 26 eb 3c f3 94 04 bd
       0.034529753 -0.0007417181 0.028704714 -0.03236861
000050 8d 9d 7d 3c 79 78 b4 3a 28 a4 a0 bc ec e9 84 3c
       0.015479458 0.0013768814 -0.019609526 0.016224824
000060 ff 3d 29 bd d0 43 fd 3c af 08 de 3a a7 5a 9e bb
       -0.04131889 0.030916125 0.0016939844 -0.004832584
000070 9a 40 98 3c 8e 1b 06 bb 33 b4 84 3c f6 10 f8 3c
       0.018585492 -0.0020463201 0.016199207 0.030281525
000080 38 eb fc bc 6e 45 bb 3c b2 31 12 bc 0d 0e 54 bc
       -0.03087388 0.022860255 -0.008922981 -0.012942803
000090 87 e6 9a 3b 52 43 0a 3d 29 88 f9 bc 07 87 13 bd
       0.004727188 0.033755608 -0.030460434 -0.036017444
0000a0 cc 28 ef 3c 74 57 c1 bc 76 db 2e 3c 99 10 3d bc
       0.029194258 -0.023601271 0.010672441 -0.011539602
0000b0 e6 23 ae ba ce ab 02 3d 04 af c6 bc f5 d5 dd bc
       -0.0013285845 0.031902127 -0.024253376 -0.027079562
0000c0 67 28 90 3c e7 aa 0d 3b 38 a1 45 bb 48 02 34 bd
       0.01759739 0.0021616758 -0.0030155908 -0.043947488
0000d0 1e 5e 0e 3d ba 15 fc bb 8f a8 26 bc 18 0a b2 bc
       0.034757726 -0.0076930197 -0.010172023 -0.021733329
0000e0 4a 44 01 bc 43 46 a1 3c 72 7e 8f bb 96 b3 16 3d
       -0.007889817 0.019686824 -0.004379087 0.03679236
0000f0 9b eb bb bb 4d 21 2d bc 23 f8 d4 3c ef c7 0d bb
       -0.0057348735 -0.010567022 0.025997227 -0.0021634062
000100 8f 05 ba bb 8c 60 26 3c 93 ee 0d 3d b4 24 bf 3b
       -0.005676932 0.0101548545 0.03465135 0.005833233
000110 b4 be f7 3c 74 73 bb 3c 49 37 57 3c 05 6c 35 3c
       0.030242302 0.0228822 0.01313574 0.011073117
000120 79 7a 3c 3c 0c 28 42 3a 81 3f 0f 3d d9 7c 19 3d
       0.011503809 0.000740648 0.03497267 0.03747258
000130 91 e5 4d 3c 41 fb 98 bb 71 51 1a 3d 18 cf 1b bd
       0.01256694 -0.0046686237 0.037675325 -0.038039297
000140 05 ed 12 3d 12 68 9b 3c bc 39 be 3c 68 6e df ba
       0.03587057 0.018970523 0.02322089 -0.0017046453
000150 98 85 0b bd 1f fb c1 3c 9e 1b b9 bc 15 43 c6 3b
       -0.03406295 0.023679314 -0.022596177 0.0060504773
000160 0b c0 b2 3c 4a c5 2b bd 85 9d 6b 3a 89 65 49 bc
       0.021820089 -0.041936196 0.0008988011 -0.012292274
000170 85 41 d2 3c ba fe 0c bd db da d4 3c 7c df c6 3c
       0.025666008 -0.034422614 0.025983265 0.024276488
000180 e4 fd e2 3c bc 03 27 3d 2f 39 04 3c 09 a9 26 bd
       0.027708955 0.040775046 0.008070274 -0.04068855
000190 b8 21 fc 3c 66 95 95 39 6b f9 55 bb 9c 9e 3e bd
       0.030777797 0.00028530805 -0.0032649885 -0.04653798
0001a0 f0 ca 71 bc 1f f8 cd bc 81 2c 29 3d 60 6d db 3c
       -0.014757857 -0.025142727 0.041302208 0.026785553
0001b0 f7 fc f0 3c ea f4 91 3c 92 ea db bc e1 bf cc bc
       0.029417498 0.01781698 -0.02684525 -0.024993839
0001c0 c2 eb 9f bc 02 39 99 bc c5 00 04 3d 39 a0 23 3c
       -0.019521598 -0.018703941 0.032227296 0.0099869305
0001d0 4a c2 eb 3c 6f 99 a2 bb 39 e7 38 bd d1 29 81 bc
       0.028779168 -0.0049621384 -0.045142386 -0.01576701
0001e0 7c d3 ee 3c eb b0 c9 3c ce cc 63 3c e4 89 8b bc
       0.029153578 0.024620494 0.01390381 -0.017033525
0001f0 bf e8 39 bd e5 94 e7 bc 06 0d af 3c 1f e3 b9 bc
       -0.04538798 -0.02826924 0.021368515 -0.022691308
000200 c6 fd 9d 3c de 59 dd 3b 55 b3 a4 bc 29 b7 db 3c
       0.019286048 0.006755098 -0.020105043 0.026820736
000210 70 57 ad bc 30 84 b0 bb 11 f9 92 bc 97 33 39 bd
       -0.021159858 -0.0053868517 -0.01794103 -0.045215216
000220 ec 89 95 b9 9e 2e f1 3b 9b ec a4 bc f1 49 e4 3c
       -0.00028522254 0.0073602935 -0.020132354 0.02786729
000230 8f a5 25 bd 67 cb 31 bd bd e6 e6 bc 48 d7 63 bc
       -0.040441092 -0.04340687 -0.028186196 -0.0139063075
000240 1d 24 11 bc 4e 34 b9 bb a3 38 8d 3c 32 9e 29 bd
       -0.008858708 -0.005651987 0.01723892 -0.041410632
000250 51 cc 16 3c 87 a7 75 3a 63 fe 3a 3c ab 7e 26 3d
       0.009203986 0.0009370972 0.01141319 0.040648144
000260 53 f1 b3 3c 4b 53 fc bc 6d 36 19 bd ae 85 66 bc
       0.021965658 -0.030801436 -0.03740542 -0.014069958
000270 c9 63 cf bc 94 66 5a 3c ee 2e b3 bb fe 07 f7 3c
       -0.025316136 0.013330121 -0.005468241 0.030155178
000280 e1 6a 9c 3c b9 76 01 bc fd c0 87 ba 8d ca 1c 3c
       0.019093933 -0.007901841 -0.0010357198 0.009569776
000290 8e b2 b3 bb 2b 57 02 3d cb 06 18 bd 8a e4 8f 3c
       -0.005483932 0.03182141 -0.037115853 0.01756503
0002a0 b3 29 df bc f8 40 33 bd f2 47 3d bc ba 47 91 3c
       -0.027241563 -0.04376313 -0.011552798 0.017734397
0002b0 86 8e f3 3c 97 89 f0 3b e2 b8 05 bc 4c ac 12 bc
       0.029731046 0.0073406207 -0.008161755 -0.008952212
0002c0 2c 7a a7 bc 19 a0 05 bc 83 19 07 bb 05 d9 0e 3d
       -0.020443998 -0.008155846 -0.0020614571 0.034874935
0002d0 99 5a 84 3c 36 d4 21 bd af 46 5a bb 40 72 fc bc
       0.016156482 -0.03950902 -0.003330629 -0.030816197
0002e0 ea ad 3c bc c6 aa 2c bd 60 d0 0a 3c d1 1e f8 bc
       -0.011516074 -0.04215505 0.008472532 -0.030288132
0002f0 69 52 23 3d 19 31 02 3d 2d 12 04 bd ad e2 24 bd
       0.039873514 0.031785104 -0.032243896 -0.040255237
000300 f3 83 b5 ba ac 0e 85 bc 0b 62 10 3c 79 57 00 bd
       -0.0013848528 -0.016242348 0.008812438 -0.03133342
000310 91 67 67 3c d2 d9 10 bd ee 8b da bc b1 25 fd bc
       0.014123813 -0.03536398 -0.026678052 -0.030901762
000320 b9 96 92 3c 3b f3 78 bb 2b 1f 3e bd 82 e7 cb bc
       0.017894136 -0.0037986774 -0.046416443 -0.024890665
000330 95 a0 d7 bc e3 15 2d bd de 1e ad 3a 10 12 7c 3c
       -0.026321689 -0.0422572 0.0013208052 0.015385166
000340 58 0a 1f bc 77 8c 9d bc e5 d9 ab bb 7c c9 0b bd
       -0.009707056 -0.019232018 -0.005244481 -0.034127697
000350 6f 9e 00 bd 51 31 62 bb 36 92 21 3d 75 19 97 bc
       -0.031401094 -0.0034514258 0.03944608 -0.018444756
000360 b4 e0 99 3c 32 f6 c2 bc 92 12 78 bc 78 69 3d bd
       0.018783905 -0.023799036 -0.015141146 -0.04624316
000370 bb f2 05 3d 9b 34 30 3d 7a 7f 7a bb 22 ed ba 3c
       0.03270219 0.04301892 -0.0038222955 0.022818152
000380 d1 78 1b 3d c0 dc c0 3c f7 d1 99 3c 7c b4 34 bd
       0.037957016 0.023542762 0.018776877 -0.044117436
000390 ef 52 37 bd e1 fc 12 bd 24 e8 1c 3c 0f 72 25 bd
       -0.044756826 -0.035885695 0.009576831 -0.040391978
0003a0 fb 18 0c bd 4b ae ac bc 6b 29 36 bd a6 82 a8 bb
       -0.03420351 -0.021079203 -0.044473093 -0.0051425276
0003b0 05 9c 14 3a a8 8c d4 bc 71 e6 d4 3c ec ef d7 bc
       0.00056690007 -0.025945976 0.02598879 -0.02635952
0003c0 d8 aa 8d bc 02 41 08 3d 0d 68 1e 3d 12 01 14 bc
       -0.017293379 0.03326512 0.03867345 -0.009033458
0003d0 ed e6 19 bd 5c d8 a2 bc dd 68 3b 3b fe a8 b7 3c
       -0.037573744 -0.019878559 0.002859644 0.022419449
0003e0 87 70 90 3c 58 b1 c2 bc 4d 45 2b bd fc 91 28 bd
       0.017631782 -0.023766205 -0.041814137 -0.041154847
0003f0 d1 1f 7a bc 08 a7 53 3b aa 69 af bc 97 c5 0c bd
       -0.015266375 0.0032295603 -0.02141269 -0.034368124

hidden_layer_1.bias f4 [256]
000000 ba 73 69 bc f4 99 e0 bc 60 1b b1 bc 7e a9 d0 3c
       -0.014248783 -0.02741716 -0.021619499 0.025471445
000010 09 3d 84 3d b9 31 de 3d 10 c4 2d bd 6f fc 74 bb
       0.06456954 0.108493276 -0.042423308 -0.0037381907
000020 5f d5 ac 3c 73 d1 d4 bb 88 f6 42 bd c7 73 00 3d
       0.021097837 -0.006494695 -0.04759839 0.031360414
000030 e3 60 8b 3d db fe 97 3b be 9d 68 3c c8 12 4e 3c
       0.06805589 0.0046385354 0.014197765 0.01257772
000040 09 97 40 3d 2c 89 49 3c d1 c6 1d 3e 29 9f 76 3c
       0.04701904 0.012300771 0.15407874 0.015052595
000050 92 2a 78 bd f2 04 e7 3c ee 46 09 3d b2 49 c4 3c
       -0.060587473 0.0282006 0.03351491 0.023960922
000060 53 32 fb 3b 2c 5a 81 3b 61 5c f9 3c 5b 52 e8 3c
       0.007665911 0.003947517 0.030439558 0.028359583
000070 39 96 1b bd f2 38 44 3d e1 c5 1a bd 7e 08 52 bb
       -0.03798506 0.04790587 -0.03778637 -0.0032048519
000080 46 59 02 bd 80 4c 29 3d 1b 84 f8 3c 0e ed 3e bc
       -0.03182342 0.04133272 0.03033643 -0.011653198
000090 77 1c cd 3c 14 bb 5c bc 02 ef 9f bd 7e 09 10 bd
       0.025037987 -0.013472337 -0.07809259 -0.035165302
0000a0 e2 d1 ba 3c 1e cb f4 ba 1d 60 b8 bb 12 82 2f 3d
       0.022805158 -0.0018676256 -0.005626692 0.042848654
0000b0 03 01 0a 3c 73 e0 0c 3d 83 63 1a bd ed 90 8c bc
       0.008423093 0.03439374 -0.037692558 -0.01715895
0000c0 d1 2e 01 bd 82 8b 87 3d a8 dd 0b 3d 4f 5e 06 bd
       -0.03153879 0.06618406 0.034146935 -0.032804783
0000d0 9a a3 13 3d 9b 53 2c bd 03 a0 d0 3b f9 00 c9 3c
       0.036044694 -0.04207192 0.006366731 0.024536597
0000e0 c3 74 fb bc 4b 53 1e bd 85 ad a6 bc f0 7c 22 bd
       -0.030695325 -0.038653653 -0.020346412 -0.03966993
0000f0 db 2f 1e bd 17 f7 0a 3d d8 d7 ed bc 5f 31 c6 3d
       -0.038619857 0.03392705 -0.029033586 0.096773855
000100 5f a4 97 3c e3 a2 d7 3b 7b 07 b5 3c be b5 9a 3a
       0.018510995 0.006580697 0.022098294 0.0011803431
000110 4a cc ee 3c 3e e5 48 bd d4 b3 99 b9 e5 1e 22 bd
       0.029150147 -0.049046747 -0.00029316416 -0.039580245
000120 a8 f0 1a 3d c5 23 c9 3c f3 86 8c bd 6a 9b 67 bd
       0.037827164 0.024553189 -0.06861677 -0.0565447
000130 94 b9 89 bc 9c ae 8e bc b6 cc 91 bc a4 a2 c7 bb
       -0.016812123 -0.017417245 -0.01779781 -0.0060923863
000140 a0 a1 94 bc c8 be 29 bd fa f6 2d bd 8c 29 1b 3d
       -0.018143475 -0.04144171 -0.042471863 0.03788142
000150 bb 71 38 bd d1 58 a3 bc c9 89 af ba f4 ff 3b 3e
       -0.045030337 -0.019939812 -0.0013392504 0.18359357
000160 55 41 61 bc f8 2e 38 ba fe e8 a0 3d 47 41 bc bc
       -0.0137484865 -0.0007026042 0.0785694 -0.022980345
000170 27 fa 18 3d 19 e6 4a bd f8 7d 03 bc e5 2c 09 bc
       0.03734794 -0.049535844 -0.008025639 -0.00837252
000180 41 b9 fe bc d6 4c a1 3d 66 d3 96 3c 1c 6b 0c 3e
       -0.031094195 0.078759834 0.01841135 0.13712734
000190 e7 dc 87 bc f3 b8 de ba 01 f1 20 bb a2 bc 46 39
       -0.016584827 -0.0016992375 -0.0024557712 0.00018953023
0001a0 1c 30 74 bb 30 f8 5d ba 4f e4 01 3d 67 7d 08 3d
       -0.003726012 -0.0008467464 0.031711873 0.033322718
0001b0 0f 86 10 3c 4a 50 69 3b dc 55 d3 3c 2c 5f 9a 3d
       0.008821025 0.0035600835 0.025797777 0.07537684
0001c0 d3 9a 17 bc c0 3a 18 3c c6 e5 66 bd 3c e4 8e 3c
       -0.009253222 0.009291351 -0.056371473 0.017442815
0001d0 21 80 3a bd 5f 07 29 3c 84 fe cb bc 82 a9 88 3d
       -0.04553235 0.010316699 -0.024901636 0.06672956
0001e0 7e 29 fe bb 25 c6 86 bc 6e 71 90 3d 8a 61 72 3c
       -0.007756411 -0.016451905 0.07052885 0.014793763
0001f0 27 2f e8 bc 36 6c 67 3c 6d 62 db ba 81 0b c3 3d
       -0.028342796 0.014124921 -0.0016737707 0.095236786
000200 84 62 bd bc 54 ae 0f 3d 31 d6 c7 3c ca 6c 62 39
       -0.023118265 0.03507836 0.024394127 0.00021593567
000210 f0 cf 79 bc 50 6f e2 bc 9f e6 dd 3c 6c a4 23 3d
       -0.01524733 -0.027640969 0.027087508 0.039951727
000220 2f 96 05 3d ce 59 c2 bc a5 d3 b2 3b 37 b3 a5 bb
       0.03261393 -0.023724463 0.005457359 -0.0050567645
000230 35 e4 1f 3b b6 41 9d 39 2d 37 22 3c 82 76 f1 3c
       0.0024397497 0.00029994332 0.00990085 0.029475454
000240 b2 4a 6f 3d c7 62 df bc e3 1d 89 3c 83 2b 0a bd
       0.058420844 -0.02726878 0.016737884 -0.033732902
000250 24 3b cf bc 6e 88 79 bc 48 1c d1 3c 8f 46 bf 3c
       -0.025296755 -0.015230281 0.02552618 0.023349075
000260 b9 74 12 3d cc 4f c5 3c a3 a9 b5 bc e3 09 ea 3c
       0.035755847 0.024085902 -0.022175616 0.028569167
000270 5f 1e 9c bc fe ee b9 bc e7 fa be 3b 19 7d fc bb
       -0.01905745 -0.022696968 0.0058282497 -0.0077053425
000280 34 2b 46 bd 55 83 1a bc e0 7f a7 bc 32 ea fa bb
       -0.048381045 -0.009430726 -0.020446718 -0.007657313
000290 11 70 2b bd 24 a4 54 bb d8 35 be 3b 3a 1a 6a 3b
       -0.04185492 -0.0032446468 0.0058047585 0.0035721199
0002a0 5a eb e2 bc ac 72 9a bc 63 c0 35 bd 24 46 cc 3c
       -0.027700115 -0.018853508 -0.044372927 0.02493579
0002b0 bf db 09 3d 97 30 80 3b 14 c5 9f 3a 63 d2 9b bc
       0.03365683 0.0039120424 0.0012189471 -0.019021219
0002c0 35 f6 00 bd 62 3a 1c bd 81 59 9e 3b 21 84 f3 3c
       -0.0314848 -0.038141616 0.004832447 0.02972609
0002d0 02 b1 a3 3b 95 ed aa 3d 12 91 f7 bc d6 77 20 bd
       0.004995466 0.083460964 -0.030220542 -0.039176784
0002e0 bc 5c 7f bc 75 8b 74 3d 0f c3 1a 3d cf 71 80 bc
       -0.015586074 0.05970331 0.03778368 -0.015679268
0002f0 a2 66 51 3c a6 fb 5e 3b a0 33 04 bd 2a 98 bd bc
       0.012780817 0.0034024506 -0.032275796 -0.023143847
000300 fb ae 3c bd 84 e3 d4 39 fa c6 47 bd fb d5 ce ba
       -0.046065312 0.00040605303 -0.048773743 -0.0015780324
000310 16 38 5a bc 62 bc b6 3c 35 4e a1 ba 9f 6a e4 3c
       -0.013319036 0.022306625 -0.0012306633 0.027882872
000320 80 b3 13 3d b2 7c 3d bd 30 6b 52 3c 08 f8 1a 3c
       0.036059856 -0.046261497 0.012842938 0.009458549
000330 e9 67 3e 3c 4d fa df bc cd 23 85 bc aa e4 43 bd
       0.011621454 -0.027341032 -0.016252423 -0.047825493
000340 a3 02 20 bd 54 53 0d bd 87 cc 81 3c 24 e0 f1 bc
       -0.039065015 -0.034503296 0.015844597 -0.029525824
000350 7e 27 c2 bc a3 03 29 3e 83 01 05 3d 1b 60 08 3d
       -0.023700472 0.16505294 0.032472145 0.03329478
000360 1e 98 bd bb 02 ad 45 bd 6d b1 1c 3d 20 ba c1 bb
       -0.005785956 -0.048260696 0.038255144 -0.0059120804
000370 c1 2c d7 3c 21 82 36 3c 38 d9 3a bd ec 3b 25 3e
       0.026266458 0.011139424 -0.045617312 0.1613614
000380 2b 66 1b 3d fe 9b c6 bc 63 0e 8f 3c 43 a5 44 bd
       0.03793923 -0.024244305 0.017462915 -0.04800917
000390 06 56 89 bc 01 ae 7b 3c 97 84 8e bc dd a6 ca bc
       -0.016764652 0.01536131 -0.017397208 -0.02473777
0003a0 24 7f 29 bd 35 6c a8 bb 59 30 1a 3c 79 2b ff bc
       -0.041381016 -0.0051398524 0.009410941 -0.031148659
0003b0 18 5e 9a bc 7b cc 5b bc 74 cf 20 3a 48 38 2e bd
       -0.018843696 -0.013415451 0.00061344285 -0.042534143
0003c0 1b 3d dd 3c fa dd b4 3c 0c f4 82 3c fd 46 d6 3b
       0.027006676 0.022078503 0.015985511 0.006539224
0003d0 5e 25 00 3d 09 f4 42 bd 4e 86 96 3c 21 0b bd 3b
       0.031285636 -0.04759601 0.018374588 0.005769149
0003e0 98 99 51 3c ac 99 b0 3c a2 98 d3 3c 0b 89 fb bc
       0.012792967 0.021557651 0.025829617 -0.030704996
0003f0 81 5d 4a 3c e1 de 3a 3c 7e 8d 45 3b 76 80 2e 3c
       0.012351395 0.011405678 0.003014415 0.010650745

output_layer.weight f4 [1, 256]
000000 61 2b 09 bc b5 70 a6 ba 22 84 88 3a 0b 7a 63 3c
       -0.008372159 -0.0012698384 0.0010415355 0.013884078
000010 33 40 2f 3e cb 5f 0d be b7 78 4d bc 91 90 b8 3c
       0.17114334 -0.13806073 -0.012540988 0.022529872
000020 47 2c f3 ba 5d 05 23 bc a2 0f 13 bd 56 ea 32 3d
       -0.0018552624 -0.009950009 -0.03590358 0.04368051
000030 60 8d 2e 3e fe 8c 27 bd 25 12 22 bd cd 15 2b 3c
       0.17046118 -0.040905945 -0.039568085 0.010442209
000040 19 1a 81 3d fc 4d 10 3d 69 47 02 be f1 5f 85 3c
       0.06303806 0.03523062 -0.12722553 0.0162811
000050 85 d0 5b 3e 1e 4d 91 bc b8 ac f1 bb ed 80 cb 3c
       0.21466263 -0.017736968 -0.007375326 0.02484175
000060 00 7d 19 bd 20 64 28 3d d1 ca 38 3c 34 16 c6 3d
       -0.037472725 0.04111111 0.011278824 0.09672204
000070 ed b1 05 bd dd 96 3f 3e b8 ff 11 3d f2 0a 26 bd
       -0.032640386 0.18709894 0.035644263 -0.040537782
000080 7e d6 97 bc 6b 30 6d 3d 60 0d 43 bd 54 14 1e 3d
       -0.018534895 0.057907503 -0.047620177 0.038593605
000090 67 3f aa ba 57 4f 85 3e da 8d 0d 3e be 54 26 bc
       -0.0012988866 0.26037094 0.13823643 -0.01015204
0000a0 39 7c 1e 3e 37 f7 2b 3c c3 ce 28 bd e7 72 f6 bd
       0.15477075 0.010495952 -0.04121281 -0.12033635
0000b0 3c b5 09 3e 6a ee fd bc 0a 51 09 bd af e8 4e 3d
       0.13448042 -0.030997474 -0.03352455 0.050514873
0000c0 e9 a6 16 3e aa d5 14 3e f0 79 06 3e 36 03 4e bd
       0.14712109 0.14534631 0.13132453 -0.05029603
0000d0 aa 59 02 bd 11 8e 96 3c ad 39 e0 bc a7 7c 4e bc
       -0.03182379 0.01837829 -0.027371252 -0.012602962
0000e0 c4 8f de 3c b1 21 5f 3c 3d 0d 26 3d b0 f0 ea 3a
       0.027168162 0.0136188725 0.04053997 0.0017924514
0000f0 01 31 47 bd cb 81 b3 3d 5e 62 36 bc 90 59 fd 3f
       -0.04863072 0.087649904 -0.011131851 1.9792957
000100 3d f6 be bc 1b 41 e3 bc dc e2 cc bc ad fc d9 bc
       -0.023310775 -0.027741006 -0.025010519 -0.026609743
000110 b2 15 d6 3d 10 15 fc bc 3a 09 62 bc b1 32 2d bb
       0.10453357 -0.030771762 -0.013796145 -0.002642792
000120 a3 fb 44 bc 8a ef 01 3e be 72 00 3e 32 17 8e 3e
       -0.0120228855 0.12689033 0.1254377 0.27752072
000130 1c 42 1b 3e cd 6a b5 bc 95 0e 32 bc 71 2d b4 3d
       0.15161937 -0.022145653 -0.010867734 0.0879773
000140 7a ba 4f 3d 2a d2 32 bd 62 37 0e 3e 55 82 82 3d
       0.050714947 -0.04365746 0.13888314 0.06372515
000150 88 f8 20 3d 3c f7 41 3d 7f b9 2b bd 36 db e0 bd
       0.039299518 0.04735492 -0.04192495 -0.10979311
000160 aa c3 b9 ba 36 55 fa 3c 79 06 25 3e fa 96 52 3d
       -0.0014172692 0.03055821 0.1611575 0.051413514
000170 db cc 48 bd 27 7f d9 bc bd 08 88 3c 42 65 0e bd
       -0.04902349 -0.026549889 0.01660573 -0.034764536
000180 a6 f0 63 bd f8 3e 05 3f 24 4a 2c bd f6 50 14 be
       -0.055649422 0.5204921 -0.042062894 -0.14484009
000190 4b 39 15 3c 60 48 3b bd 65 a7 12 3d 00 3e 3a bd
       0.009107898 -0.04572332 0.03580417 -0.045469284
0001a0 f3 f7 7b ba 77 6f 43 3d 89 e9 bb 3c 4b e2 5d bc
       -0.00096118374 0.047713723 0.022938507 -0.013542722
0001b0 07 6b 28 bb 7a 5b 38 bd 2a 07 10 3d 34 7a f9 3c
       -0.002569856 -0.045009114 0.035163082 0.030453779
0001c0 23 98 1c 3d 48 ff b2 3e 4d 51 88 3f 18 3b 8c 3e
       0.038231026 0.3496039 1.0649811 0.27388835
0001d0 43 6f 2a ba 9b b3 96 bb 59 e8 29 3a 56 f8 37 be
       -0.00065015646 -0.0045990474 0.0006481461 -0.17965826
0001e0 ac d7 f5 bc 41 4a af 3e 4f 11 8f 3e 90 e6 6f 3c
       -0.030010067 0.3423634 0.27942893 0.014642373
0001f0 d1 7d 3f 3a bb f2 47 3d ff 8c 19 bd 40 37 16 3e
       0.000730482 0.04881547 -0.03748798 0.14669514
000200 a6 5f 17 bd c8 17 5c 3f 95 1b 7e bc 1a 28 6a bd
       -0.03695645 0.8597379 -0.015509506 -0.05716715
000210 07 8f 84 bc 22 61 b2 3c 33 ec 05 bc 05 5f c5 3b
       -0.016181482 0.021774832 -0.00817399 0.00602329
000220 7d 7b d9 3c 96 0d a4 3c 76 00 7d 3c 29 da 70 3e
       0.026548142 0.02002601 0.015442004 0.23520721
000230 e2 cf d3 3c de 91 03 bd 40 41 29 bd b3 15 fa 3c
       0.025855962 -0.03212153 -0.041321993 0.030527925
000240 dd b8 02 3e df 44 74 3d da 5a a6 3d fc fe 22 3d
       0.12765832 0.059635993 0.08122797 0.039793953
000250 7b 77 23 bd a3 c2 11 3d 08 03 a7 bb 60 51 9e bc
       -0.039908867 0.03558601 -0.005096797 -0.019325912
000260 b2 d4 56 bd 24 ee aa bc 3f b6 b8 3b e4 98 4e bd
       -0.052448936 -0.020865507 0.00563696 -0.050438777
000270 48 50 93 3c 2d e7 08 bb 1e 6f a3 bc 60 90 51 bd
       0.017982617 -0.0020889745 -0.019950446 -0.051163077
000280 0e 42 72 bc d6 9c 4f bd 3e 41 a8 3d 97 f4 41 3d
       -0.0147862565 -0.05068668 0.08215569 0.0473524
000290 19 83 fc 3d a2 1a 00 3b 6b 16 5b bd b7 90 76 bd
       0.123296924 0.0019547124 -0.053488176 -0.060196605
0002a0 db e2 1a 3d 26 09 e2 bc 93 16 55 3d 03 ee 34 bc
       0.037814002 -0.027592253 0.05202348 -0.011043075
0002b0 ad 3c 0b bd c0 d5 e3 b9 9c 49 d4 3e e7 92 18 3b
       -0.03399341 -0.0004345607 0.4146241 0.002328092
0002c0 45 63 ac be df 24 a5 bc 97 02 65 3d 53 85 2b bd
       -0.33669487 -0.020159183 0.055910673 -0.041875195
0002d0 3c 8c 9f 3d 35 74 0e be 6e 8c 23 bc c5 96 c8 3c
       0.077904195 -0.13911517 -0.0099822115 0.024485955
0002e0 81 50 54 bd b6 25 43 3f 98 fd 8e bc 71 89 4c bd
       -0.051834587 0.7622942 -0.017454907 -0.04993576
0002f0 67 cf 33 3e b3 4a d3 bc 5b a5 10 bc 04 d9 40 3d
       0.17559586 -0.025792455 -0.008828486 0.047081962
000300 1b 15 27 3a 67 ad 6b 3d 09 09 bc bc b9 e7 33 bb
       0.00063736894 0.057538416 -0.022953527 -0.002745135
000310 47 6a 51 3a e2 68 21 bb 08 86 45 bd db ef 33 3d
       0.0007988554 -0.0024629165 -0.048223525 0.043929916
000320 31 f5 5b 3d 1c a6 04 3d bb 3c 27 3e ff e6 b7 3d
       0.05370063 0.032384977 0.1633176 0.08979606
000330 06 50 c2 bb f4 97 dd 3c c8 29 7b ba ae 7b ea 3c
       -0.0059299497 0.027049996 -0.0009581116 0.028623428
000340 56 18 8e 3c 78 f5 cf bc 94 de fa bc f1 05 00 3d
       0.017345589 -0.025385603 -0.030623712 0.031255666
000350 c7 71 1b 3e 84 8c 49 be 6b 32 3f 3d 05 18 81 3b
       0.15180121 -0.19682509 0.04667894 0.003939631
000360 6b be 11 bd 23 44 5f bd 2d 7f dd 3c eb 9c d2 3e
       -0.035581987 -0.05450834 0.027038181 0.41135344
000370 90 ea c5 3d 45 d1 0b bd a7 7c fb bb 7c 30 1d be
       0.0966388 -0.03413512 -0.007674772 -0.15350527
000380 98 bb 19 3d ca d8 31 3c 70 1e 91 bc 49 93 59 bc
       0.03753242 0.010854909 -0.017714709 -0.013279744
000390 ab ae e0 bc 4a fd 00 be 71 d1 0c bd f8 c0 f0 bb
       -0.027427038 -0.12596622 -0.034379426 -0.0073472224
0003a0 e9 66 14 3d 58 b4 c3 3a 28 c1 85 3d ac be 13 3e
       0.036230955 0.0014931066 0.06530982 0.14428204
0003b0 fa 5a 4a bd 9f 2b 14 3e bb a6 39 bd 34 1b ba bc
       -0.04940317 0.14469765 -0.045325022 -0.02271805
0003c0 ac af e2 bb 55 22 03 3d 22 b2 3b bd f6 21 fc bc
       -0.0069179144 0.032015163 -0.045824178 -0.030777913
0003d0 9f 91 89 3c 02 aa 29 bd ad f2 81 3f 85 9f 31 bd
       0.01679307 -0.041421898 1.0152184 -0.04336502
0003e0 91 01 ed 3e 7e 6b a6 bb 45 7f c6 bc 89 fe 8b 3d
       0.46290258 -0.005078732 -0.024230609 0.06835658
0003f0 80 d9 53 bd b2 70 be 3d 32 c4 f3 3e af 89 b6 bb
       -0.051721096 0.09298839 0.47610623 -0.0055706124
