models/Expert/critic.pth (torch, 537982 bytes, 5 tensors)

input_layer.weight f4 [512, 3]
0	0xbde586e7	-0.11207371
1	0x3f886b64	1.0657773
2	0xbeaa24a3	-0.33231077
3	0x3fa9006b	1.3203253
4	0x3eeaa159	0.45826223
5	0x3ed23b9b	0.410611
6	0xbda44dd0	-0.08022654
7	0x400ef2e9	2.233576
8	0x3f09856a	0.537192
9	0x3f00b914	0.50282407
10	0x3fa858ee	1.3152139
11	0x3e93ee2e	0.28892654
12	0x3f9f0839	1.2424384
13	0x3eef8e5a	0.46788293
14	0x3eddb193	0.4329954
15	0xbcb5f083	-0.022209411
16	0x3b250415	0.0025179435
17	0x39e799bc	0.00044174294
18	0xbec2f27e	-0.38075632
19	0xbdbae525	-0.09125737
20	0xbde31fc3	-0.110900424
21	0xbd0ba947	-0.034096982
22	0x3c6e2a2a	0.01453642
23	0x392d3fe4	0.00016522367
24	0xbd3eba1b	-0.046564203
25	0xbe2421f5	-0.16028579
26	0xbb0512b4	-0.0020305337
27	0x3ccfd142	0.025368337
28	0xbda90c36	-0.08254282
29	0xbc9a27d4	-0.01881782
30	0x3e2af855	0.16696294
31	0xbd433034	-0.047653392
32	0xbb58dccd	-0.0033090592
33	0x3f6b2d61	0.9186612
34	0x3ee50b4d	0.44735184
35	0xbd4bc237	-0.049745765
36	0x3f916bbf	1.1361006
37	0x3f6a73f1	0.9158316
38	0xbe5ae12a	-0.21374956
39	0x3e9a767e	0.30168527
40	0xbff0585e	-1.8776968
41	0xbeda7ed0	-0.42674875
42	0x3ee445bd	0.44584456
43	0x3f8b75e5	1.0895354
44	0xbc102c95	-0.008799692
45	0x3e8167e1	0.25274566
46	0x3f4ea9da	0.8072792
47	0x3e127994	0.14304191
48	0x3ed118c3	0.40839204
49	0xc00c0af6	-2.188169
50	0xbede99ce	-0.4347672
51	0x3d35821c	0.044313535
52	0xbe02a9c7	-0.12760077
53	0x3a778aba	0.0009442974
54	0xbcc95d26	-0.02458055
55	0x3d24ac96	0.040203653
56	0x39e9ccfa	0.00044593943
57	0x3e111527	0.14168225
58	0x3f02b334	0.5105469
59	0xbdd794c6	-0.10526423
60	0x3d8e2175	0.06939975
61	0x3e1cd21b	0.15314524
62	0x3bb6356e	0.0055605685
63	0x3f162d49	0.5866285
64	0xc006e14a	-2.1075006
65	0xbefc2888	-0.49249673
66	0x3f9e89a2	1.2385752
67	0xbffac82e	-1.959234
68	0xbf14a90c	-0.58070445
69	0x3d839d81	0.06426526
70	0x3ff4bd03	1.9120182
71	0x3eb73fba	0.35790807
72	0x3f8e7b81	1.113144
73	0xc01fb07d	-2.495147
74	0xbef8527f	-0.4850044
75	0xbf14a81f	-0.5806903
76	0xbe768eea	-0.24077955
77	0x3d7ddee3	0.06198014
78	0x3d4d9add	0.050196517
79	0x3d802756	0.06257503
80	0x39055019	0.00012713707
81	0xbfa74cb0	-1.3070278
82	0xbec60e60	-0.38682842
83	0xbe305d9d	-0.1722321
84	0x3f86ad01	1.0521547
85	0x3fb0c922	1.3811381
86	0x3eaa872b	0.3330625
87	0xbf99158a	-1.1959698
88	0x3f5c45e4	0.86044145
89	0x3cf2b0f5	0.029625395
90	0x3e913725	0.28362384
91	0x3ce8ecfa	0.028433312
92	0x3d46d735	0.04854508
93	0x3e3a708e	0.18206999
94	0xc011d059	-2.2783415
95	0xbece11ce	-0.4024796
96	0x3fb8f3d1	1.4449407
97	0xbf8c1c73	-1.0946182
98	0xbd9de160	-0.077090025
99	0xbf44fbe2	-0.7694684
100	0xbf14d664	-0.58139634
101	0x3c0f42d4	0.00874396
102	0xbeaac8f4	-0.3335644
103	0xbec04eed	-0.37560216
104	0x3cae5c3c	0.021284215
105	0x3accc543	0.0015622753
106	0xbeecc825	-0.46246448
107	0xbb4d9943	-0.0031371869
108	0xbfb17a10	-1.3865376
109	0x3f809498	1.0045347
110	0x3d1647b0	0.03668946
111	0x3e8db4ee	0.276771
112	0xbf92a7b5	-1.145743
113	0xbe56475a	-0.20925656
114	0xbe691e8f	-0.22765563
115	0xbd8d9914	-0.06913963
116	0x3a6a40b8	0.00089360354
117	0xbee6a346	-0.45046443
118	0xbfb7813f	-1.4336318
119	0xbe61d89f	-0.2205529
120	0xbea4cbd2	-0.32186753
121	0xbfb172db	-1.3863176
122	0xbe4df599	-0.2011322
123	0x3d381c4c	0.04494886
124	0xbeb65ced	-0.35617772
125	0xbb489584	-0.0030606696
126	0x3de73e6b	0.11291202
127	0x3d0d3a17	0.034479227
128	0x3caf3494	0.021387376
129	0xbd891394	-0.06693187
130	0x3fcbec3b	1.5931467
131	0xbced5498	-0.028971002
132	0xbe3831f9	-0.17987813
133	0xbfe132c5	-1.7593619
134	0xbe7573e4	-0.2396999
135	0x3d1a4863	0.03766669
136	0xbff0ae71	-1.8803235
137	0xbe5c9e94	-0.21544868
138	0x3f644b57	0.8917746
139	0x3ea00ca2	0.31259638
140	0x3ed162f4	0.40895808
141	0x3deeb6ec	0.11655983
142	0xbce66c11	-0.028127702
143	0xbb5f8e0a	-0.0034111761
144	0x3ecf12e2	0.40444094
145	0x3fcdfa28	1.6091967
146	0x3e927c53	0.28610477
147	0x3cc9282c	0.024555288
148	0xbcc43c33	-0.023954486
149	0xbb3cb72c	-0.0028795702
150	0x3f02a5af	0.51034063
151	0xbf7c2ec4	-0.9850886
152	0x3e18c8af	0.14920305
153	0xbc13567a	-0.008992786
154	0xbd9c0f78	-0.07620138
155	0x39300159	0.0001678517
156	0x3f6748fb	0.90345734
157	0x3faf3798	1.3688841
158	0x3eabee53	0.33580264
159	0xbf0a9228	-0.54129267
160	0x3a839d63	0.0010041412
161	0x3e35dc1a	0.17759743
162	0x3dae27fa	0.08503719
163	0x3e900fd5	0.2813708
164	0x3b9a8db5	0.0047166
165	0xbbb0c07f	-0.005394041
166	0xbcd37814	-0.025814094
167	0x3b43bb9d	0.0029866465
168	0xbecb22bb	-0.39674935
169	0xbfca43c0	-1.5801926
170	0xbe56dd28	-0.20982802
171	0x3e41bea2	0.18920377
172	0xbd7724c0	-0.060337782
173	0xbed4bce5	-0.41550365
174	0x3ecab72e	0.3959288
175	0xbf6f5436	-0.9348787
176	0xbe0fe3c2	-0.14051726
177	0xbe98ef2e	-0.2986998
178	0xbebf654c	-0.3738197
179	0xbecb08d7	-0.39655182
180	0x3f1973f9	0.59942585
181	0x3fbd227b	1.4776148
182	0x3e8fff63	0.28124532
183	0xbeabae06	-0.33531207
184	0x4002e92b	2.0454814
185	0x3ed4f644	0.41594136
186	0x3f94c04f	1.1621188
187	0xbff7e7d9	-1.9367629
188	0xbf05e7ac	-0.5230663
189	0x3cdcab3a	0.026937116
190	0xbda6aea5	-0.081387796
191	0xbca01ef9	-0.019546019
192	0x3fa66e8d	1.3002487
193	0x3facf407	1.3511971
194	0xbe40db4a	-0.18833652
195	0xbb8442ab	-0.0040362678
196	0xbd054e48	-0.032545358
197	0xb85a2ccb	-5.2016967e-05
198	0x3f3206c0	0.6954155
199	0xbf664187	-0.89943737
200	0xbef9a77c	-0.48760593
201	0x3a8f4ce2	0.0010932947
202	0x3e836586	0.25663394
203	0x3c986b48	0.018605843
204	0x3cc83a8a	0.024441976
205	0xbf8a466d	-1.0802742
206	0xbe91a75e	-0.28448004
207	0xbed35971	-0.41279176
208	0xbe26141e	-0.16218612
209	0x3db21012	0.086944714
210	0x3f666568	0.89998484
211	0xbeae2574	-0.3401295
212	0xbee5377f	-0.44768903
213	0xbd2a4b12	-0.0415755
214	0x3f54aec9	0.830792
215	0x3d909d9a	0.0706131
216	0x3e12f5d8	0.14351594
217	0x3fd05e86	1.6278846
218	0x3ea43b34	0.32076418
219	0x3dcc4c59	0.099755
220	0xbd1aa2ee	-0.037753038
221	0xbc9ca514	-0.019121684
222	0x3ef4577b	0.47722992
223	0xbfa2d851	-1.2722265
224	0xbe9ada2f	-0.30244586
225	0x3d0fd37b	0.035113793
226	0x3f49178f	0.7855157
227	0x3d7f60a2	0.062348016
228	0xbe5d66c3	-0.21621232
229	0xc00dbf95	-2.2148182
230	0xbefd7e46	-0.495104
231	0x3fb85282	1.4400179
232	0x3f845cb8	1.0340796
233	0x3ee3ed56	0.4451701
234	0x3df20f4d	0.11819325
235	0x3f5fab7f	0.8737106
236	0x3d62aa43	0.055338155
237	0xbe148c3f	-0.14506625
238	0xc0117e73	-2.2733428
239	0xbf0b426b	-0.5439822
240	0x3f7284de	0.9473399
241	0xbfd6290c	-1.6731277
242	0xbeea724f	-0.45790336
243	0x3bab990c	0.0052367505
244	0xbfc9eded	-1.5775734
245	0xbeb50051	-0.35351804
246	0xbdbc4a90	-0.09193909
247	0xbd928456	-0.07154147
248	0xba961a4f	-0.0011451932
249	0x3f8a0d3c	1.0785289
250	0xc009b5c2	-2.1517186
251	0xbf024434	-0.5088532
252	0xbf2ed959	-0.68300396
253	0xbf8ae548	-1.0851221
254	0xbcd949a3	-0.02652437
255	0xbf64e2ac	-0.89408374

input_layer.bias f4 [512]
0	0xbe913322	-0.28359324
1	0xbf9a1855	-1.2038676
2	0xbebfdfa1	-0.37475303
3	0xbf4992a7	-0.787394
4	0xbfb60655	-1.4220682
5	0xbcd9a42c	-0.026567541
6	0x3e4c4d8c	0.19951457
7	0xbd2ba5df	-0.041906234
8	0xbe48b45b	-0.1960005
9	0xbe521547	-0.20515929
10	0xbe3b4278	-0.18287075
11	0xbee26e47	-0.4422476
12	0xbe934dac	-0.28770196
13	0xbf2ec6eb	-0.68272275
14	0xbf324fba	-0.69652903
15	0xbee57495	-0.44815508
16	0x3dcd65e3	0.10029199
17	0xbe1634fe	-0.14668652
18	0xbd5135d4	-0.051076725
19	0xbef7389e	-0.48285383
20	0xbe4c09a0	-0.19925547
21	0xbf7cb5bc	-0.98714805
22	0xbf4a17bd	-0.7894247
23	0xbf175e7f	-0.59128565
24	0xbef65c4a	-0.48117286
25	0x3d380851	0.044929806
26	0xbda5a7c9	-0.08088643
27	0xbf1b6429	-0.6069971
28	0xbf135157	-0.5754599
29	0xbf69f8ee	-0.9139546
30	0xbeef3e56	-0.46727246
31	0x3e4074e4	0.1879459
32	0xbf8d8e04	-1.1058965
33	0xbf0e151e	-0.5550097
34	0xbf2de639	-0.67929417
35	0xbef8deca	-0.48607475
36	0xbf874eeb	-1.0570959
37	0xbf58fc90	-0.8476038
38	0xbe7bcd65	-0.2459007
39	0xbe5cc19c	-0.21558231
40	0xbee17297	-0.44032738
41	0xbebfe946	-0.3748266
42	0xbe6f3fd3	-0.23364191
43	0xbe12b87b	-0.14328186
44	0xbf337270	-0.7009649
45	0xbf72a03e	-0.9477576
46	0xbfd25544	-1.6432271
47	0xbe222c3c	-0.15837187
48	0xbe2ebbfe	-0.17063901
49	0xbd5f8b62	-0.054576285
50	0xbeaeea56	-0.3416316
51	0xbda765a5	-0.08173684
52	0xbf0d8d97	-0.55294174
53	0x3f04703f	0.51733774
54	0xbea34b2e	-0.31893295
55	0xbd7b8597	-0.061406698
56	0x3e5b6ee8	0.21429026
57	0xbfda3838	-1.7048407
58	0xbf1bd684	-0.608742
59	0xbed19b4a	-0.4093879
60	0xbeb7256e	-0.35770744
61	0xbea24662	-0.31694323
62	0xbf3a42ae	-0.72757995
63	0xbe4996fd	-0.19686504
64	0xbfc046f5	-1.5021654
65	0xbd108260	-0.035280585
66	0xbfb8d1df	-1.4439048
67	0xbeca0a3b	-0.3946093
68	0xbe665d4d	-0.22496529
69	0x3ed2f851	0.41205075
70	0xbff0f843	-1.8825763
71	0xbf1d4ca5	-0.61445075
72	0xbf107664	-0.5643065
73	0xbe6876af	-0.22701524
74	0xbf3ad74a	-0.72984755
75	0xbe10fe16	-0.14159426
76	0xbe964cef	-0.2935557
77	0xbf84673d	-1.0344006
78	0xbdfc4bf6	-0.12319176
79	0xbf06ddf9	-0.52682453
80	0xbeeee6df	-0.46660516
81	0xbeb53bd6	-0.35397214
82	0xbe01075a	-0.1260046
83	0xbf1e1424	-0.6174948
84	0xbf370e3b	-0.7150609
85	0xbf5dbd3d	-0.8661688
86	0xbf3735ba	-0.71566355
87	0xbe61f79f	-0.22067116
88	0xbeb04409	-0.34426907
89	0xbeff3ec3	-0.4985257
90	0xbe246a67	-0.16056214
91	0xbf93f136	-1.1557987
92	0xbe16a556	-0.14711508
93	0x3d521fb2	0.05129976
94	0xbe5661e6	-0.20935783
95	0xbf1ebee9	-0.62010056
96	0xbf8974f5	-1.0738817
97	0xbf17b3c6	-0.5925869
98	0xbfc9ee02	-1.5775759
99	0xbf0cb89d	-0.549692
100	0xbf469d9c	-0.7758424
101	0xbe058687	-0.130396
102	0xbe249de2	-0.16075853
103	0xbec2ba92	-0.38032967
104	0xbda6af23	-0.081388734
105	0xbe81fab8	-0.25386596
106	0xbf2ec760	-0.6827297
107	0xbe97288f	-0.2952313
108	0xbeb63bec	-0.35592592
109	0xbe92b71e	-0.28655332
110	0xbe2ca14d	-0.16858406
111	0xbf0f4045	-0.5595744
112	0xbdecb150	-0.11557257
113	0xbf914a6d	-1.1350838
114	0xbf267f73	-0.6503822
115	0xbf5ca297	-0.8618559
116	0xbea52568	-0.322551
117	0xbf59c158	-0.85060644
118	0x3e81f58f	0.2538266
119	0xbe066d9e	-0.13127753
120	0xbf3b433f	-0.73149484
121	0xbf6c3632	-0.92270195
122	0x3e1b5cbf	0.15172099
123	0xbe7fc0a8	-0.24975836
124	0xbf3f9432	-0.74835503
125	0xbf2db5ae	-0.67855346
126	0xbb134f24	-0.0022477591
127	0x3d5e0cf7	0.054211583
128	0xbf4866aa	-0.7828165
129	0xbdc56e69	-0.096402
130	0xbf7e8f85	-0.99437743
131	0xbee6454d	-0.44974747
132	0xbf1f0881	-0.6212235
133	0xbf3baaaf	-0.7330732
134	0xbf5e683b	-0.86877793
135	0xbefa9264	-0.48939812
136	0xbf232c29	-0.6373926
137	0xbe863c42	-0.26217848
138	0xbd971b4c	-0.07378253
139	0x3f0c531c	0.54814315
140	0x3d9eb098	0.07748526
141	0xbebcfc4e	-0.36911243
142	0xbeec4126	-0.46143454
143	0xbd9a660f	-0.075389974
144	0xbf30e6ac	-0.6910198
145	0xbef71365	-0.48256984
146	0xbe154841	-0.14578344
147	0xbf448dfe	-0.7677916
148	0xbef918b5	-0.48651662
149	0xbf347aac	-0.7049968
150	0xbe712fe7	-0.2355343
151	0xbeb08971	-0.3447986
152	0xbf406a8c	-0.7516258
153	0xbe6e4afa	-0.23270789
154	0xbf9cd4b7	-1.2252415
155	0xbeca7973	-0.39545783
156	0x3e9997ac	0.2999853
157	0xbd2dfd09	-0.04247764
158	0xbf5aa856	-0.8541311
159	0xbf6c4da7	-0.9230599
160	0xbeb93d82	-0.3617974
161	0x3f051cf3	0.519973
162	0xbf3cd957	-0.73769134
163	0xbf1158bc	-0.5677602
164	0xbec22a49	-0.37922886
165	0xbf314442	-0.6924478
166	0xbe78908e	-0.24273893
167	0xbe7a3620	-0.2443471
168	0xbe6f98e2	-0.23398164
169	0xbe0c6e39	-0.13713922
170	0xbf3b7c46	-0.732365
171	0xbf4f0681	-0.808693
172	0xbee3223f	-0.44362065
173	0xbd458d6f	-0.048230585
174	0xbe919fc5	-0.28442207
175	0xbde6e50a	-0.112741545
176	0xbe49d985	-0.19711883
177	0xbd465e59	-0.04842982
178	0xbe538257	-0.2065519
179	0xbf22c9f4	-0.63589406
180	0x3d90a9e9	0.07063658
181	0xbefd554e	-0.49479145
182	0xbeadb37e	-0.33926004
183	0xbf5b1b53	-0.8558857
184	0xbf241161	-0.6408902
185	0xbd5c6976	-0.053811513
186	0xbf7df09f	-0.99195284
187	0xbfea0647	-1.8283166
188	0xbe19a8db	-0.1500582
189	0xbef35426	-0.47525138
190	0x3e221f72	0.15832308
191	0xbf257cf3	-0.6464378
192	0xbd091ef6	-0.033476792
193	0xbf2efe62	-0.6835691
194	0xbea7bc77	-0.32760975
195	0x3d37fdec	0.044919893
196	0xbe159999	-0.14609374
197	0xbf1f4f50	-0.62230396
198	0xbd56f473	-0.05247922
199	0xbcfc7b0c	-0.030820392
200	0xbf52c750	-0.82335377
201	0xbf2d08e9	-0.6759172
202	0xbf35d53d	-0.710285
203	0xbdac8712	-0.084242
204	0xbed134e2	-0.4086066
205	0xbda62d60	-0.08114123
206	0xbdc21a44	-0.09477666
207	0x3ecf0991	0.40436986
208	0xbdc4297f	-0.09578227
209	0xbe02d397	-0.12776028
210	0xbe5e28e0	-0.2169528
211	0xbeb64b21	-0.35604194
212	0xbc06e81a	-0.008234048
213	0xbd6c0462	-0.057621367
214	0xbdd8ac8e	-0.10579787
215	0xbd680561	-0.056645755
216	0xbeaae7b4	-0.333799
217	0xbdeee3d2	-0.11664547
218	0xbe1dafdd	-0.15399118
219	0xbe9b6d01	-0.303566
220	0x3f504995	0.8136228
221	0xbf8bdf9b	-1.0927614
222	0xbede2d36	-0.43393868
223	0x3ea872b5	0.32900015
224	0xbfb2f123	-1.3979839
225	0xbf8b1795	-1.0866572
226	0xbf7795c3	-0.96712893
227	0xbee3f9cc	-0.44526517
228	0xbf57814d	-0.8418167
229	0xbec1b026	-0.37829703
230	0x3e5676cb	0.20943753
231	0xbe8d2295	-0.27565446
232	0xbcada5a4	-0.021197148
233	0xbd88eee0	-0.06686187
234	0xbe70d047	-0.23516952
235	0xbf84be6a	-1.037061
236	0xbe87e7d3	-0.26544055
237	0xbf77966d	-0.96713907
238	0xbd80255f	-0.06257128
239	0x3d9bf511	0.07615102
240	0xbf375a6a	-0.71622336
241	0xbf69528c	-0.9114158
242	0xbf24eac3	-0.6442072
243	0xbecc6383	-0.3991967
244	0x3ea30a88	0.31843972
245	0xbe56d0df	-0.20978115
246	0xbf94062a	-1.1564381
247	0xbe858d1d	-0.26084223
248	0xbd816a7b	-0.06319138
249	0xbe04f299	-0.12983169
250	0xbd03f555	-0.03221639
251	0xbdba77e0	-0.091048956
252	0xbf6cdeb2	-0.92527306
253	0xbfa90afb	-1.3206476
254	0xbf5d3047	-0.8640179
255	0xbff20ba4	-1.8909802

hidden_layer_1.weight f4 [256, 513]
0	0x3edb2644	0.42802632
1	0x3f9b021a	1.2110016
2	0xbd8f03e5	-0.06983165
3	0xbeb425d6	-0.35185117
4	0x3ef35ba4	0.47530854
5	0x3b6be599	0.0035995005
6	0x3dd903ea	0.1059645
7	0x3d6368ba	0.055519797
8	0x3dd31efc	0.10308644
9	0x3de86836	0.11348002
10	0x3df6b519	0.120462604
11	0x3e101bbd	0.14073081
12	0xbbcca510	-0.006245263
13	0x3dfde11b	0.12396451
14	0xbf19c3f3	-0.6006462
15	0xbe757843	-0.23971657
16	0xbfbc8adb	-1.4729875
17	0x3cdd476f	0.027011601
18	0x3c489405	0.012242322
19	0xbfa0d39d	-1.2564579
20	0xbc8a23a4	-0.016862698
21	0x3c3ae3cd	0.011406851
22	0xc08e18fc	-4.44055
23	0xbefa3cba	-0.48874456
24	0xbfcf2985	-1.6184546
25	0x3e647ec6	0.22313985
26	0xbada8272	-0.0016670956
27	0x3f71d6f7	0.94468635
28	0x3e104b2b	0.14091174
29	0x3f1ac237	0.604526
30	0xbd88bf7d	-0.066771485
31	0xc09d860d	-4.9226136
32	0x3ee466f8	0.4460981
33	0xbf7aa1f8	-0.97903395
34	0xbfcc2111	-1.5947591
35	0xbe2ce0fe	-0.16882703
36	0x3f0c4a9a	0.5480133
37	0xbfbe448a	-1.4864666
38	0x3e45e806	0.19326791
39	0x401722f9	2.3615096
40	0xbfcfa357	-1.6221722
41	0x3f183e95	0.5947049
42	0x3cbb26c0	0.022845626
43	0x3e2412f5	0.16022857
44	0xbedde451	-0.43338254
45	0xbf3e3293	-0.7429592
46	0x3fb3e578	1.4054403
47	0xbe0a08bb	-0.13479893
48	0x3e027e58	0.12743509
49	0xbdd8dd46	-0.105890796
50	0x3faadd8f	1.3348864
51	0xbe10a6e0	-0.14126158
52	0x3e881815	0.26580873
53	0xbdc7086c	-0.09718403
54	0x3d4cca08	0.04999736
55	0x3d0723ab	0.032993
56	0xc06d5175	-3.7080967
57	0xbec910d1	-0.39270642
58	0xbef046e3	-0.46929082
59	0xbfdb114d	-1.7114655
60	0xbbf16b7b	-0.007367549
61	0xbea95535	-0.3307282
62	0xc0705c4e	-3.7556338
63	0xbbc118a6	-0.005892831
64	0x3f746a03	0.9547426
65	0x3de11183	0.10989668
66	0x3ecca135	0.3996674
67	0xbcf948e9	-0.030430274
68	0x3e6fa4ac	0.23402661
69	0xbdaa612c	-0.08319315
70	0x3da75579	0.081705995
71	0x3ec6659c	0.38749397
72	0xbe4dcaae	-0.20096847
73	0xbd1ae635	-0.0378172
74	0xbfc7a519	-1.5597259
75	0x3e319d0e	0.17345068
76	0x3f8ef6a3	1.1169018
77	0x3e00211d	0.12512632
78	0x3de1acb9	0.11019272
79	0x3f476668	0.77890635
80	0xc02ad90f	-2.6694982
81	0xbe3fd4c1	-0.18733503
82	0x3e5e7600	0.21724701
83	0xc091c44b	-4.5552115
84	0xbffe517f	-1.9868621
85	0xbfc42bae	-1.532583
86	0x3f0375df	0.5135173
87	0x3ddbdde4	0.10735682
88	0xbe9b6a29	-0.3035443
89	0xc0832f26	-4.0995054
90	0x3e867e44	0.26268208
91	0x3f0bc5e0	0.5459881
92	0xbe60dd9f	-0.21959542
93	0x3e4343a8	0.19068778
94	0x3dedf24c	0.1161848
95	0xbf42d2ea	-0.7610308
96	0x3f00a0c6	0.5024532
97	0xbc811a66	-0.015759658
98	0xbf80fbee	-1.0076883
99	0xbffb8fc0	-1.9653244
100	0xc006b1ad	-2.1045945
101	0x3d45ba01	0.04827309
102	0x3e847101	0.25867465
103	0xbe300937	-0.17191015
104	0xbd16c962	-0.036813147
105	0x3b7b6cc8	0.00383644
106	0xbfaad074	-1.3344865
107	0xbd8afdb9	-0.06786675
108	0xbf41234e	-0.75444496
109	0x3f8527ba	1.0402749
110	0x3d68f8e4	0.056877986
111	0xbf5d9e50	-0.8656969
112	0xbc3669c8	-0.011133619
113	0x3b2ea3cf	0.002664793
114	0xbfb427dd	-1.4074665
115	0xbf4fd9b6	-0.81191576
116	0xbe57ffdf	-0.21093701
117	0x3e8a6b4f	0.27034995
118	0xbd99b53e	-0.07505272
119	0xbf1e257f	-0.61775964
120	0xbee995bd	-0.45622054
121	0xbe0dc06d	-0.13842936
122	0xc08b91d8	-4.361553
123	0x3d0ad260	0.033892035
124	0x3c23874d	0.009980989
125	0xbe91ed3c	-0.28501308
126	0x3e4f281a	0.20230141
127	0xbcc1375c	-0.023585968
128	0xbfe5441d	-1.7911412
129	0x3e880b12	0.26570946
130	0xbe0013f3	-0.1250761
131	0x3ec81399	0.39077452
132	0xbe9f3b42	-0.31099898
133	0xbea724ba	-0.32645208
134	0x3fe720d8	1.8056898
135	0xbf0f32d3	-0.55936927
136	0x3e6ea50f	0.23305152
137	0xbd433a05	-0.047662754
138	0x3eb4f2b0	0.35341406
139	0xbfc94029	-1.5722705
140	0xc00d70f1	-2.2100184
141	0x3ec83b5c	0.39107788
142	0xbeed2498	-0.4631698
143	0x3dadc073	0.084839724
144	0xbf83458f	-1.0255603
145	0x3f1dd4f4	0.61653066
146	0x3e46efc5	0.19427402
147	0x3d91dd09	0.07122237
148	0xbfff05b9	-1.9923621
149	0x3e2838b3	0.16427879
150	0xbfdfb993	-1.7478508
151	0xbe2ce2ff	-0.16883467
152	0xbf11cc31	-0.56952196
153	0xbe6282ae	-0.22120163
154	0xbf871bf9	-1.0555412
155	0xbf8665d5	-1.0499827
156	0x3e083bab	0.13304012
157	0x3d73fece	0.059569173
158	0xbfe0958f	-1.7545642
159	0xbea0c6b8	-0.3140161
160	0xc08a56d5	-4.3230996
161	0xbf9995a7	-1.1998795
162	0xbe6c7ecb	-0.23095243
163	0x3e39dac4	0.18149859
164	0xbbb385b2	-0.005478584
165	0xbef3651e	-0.47538084
166	0x3e4fb0ab	0.20282237
167	0xbcea5660	-0.02860564
168	0x3d8ce1db	0.06879016
169	0x3def262d	0.11677203
170	0x3f0ec03f	0.55762094
171	0xc00ccdb6	-2.2000556
172	0xbd9932ae	-0.074803695
173	0x3cb43e52	0.022002373
174	0xbd8f713c	-0.070040196
175	0xbd6c7cf7	-0.057736363
176	0xbd9df357	-0.07712429
177	0x3d2fcd04	0.042920128
178	0xbf21a4e0	-0.63142204
179	0xbf68eecc	-0.90989375
180	0x3f008256	0.50198877
181	0x3dc42d8c	0.09579
182	0x3d5086fa	0.050909974
183	0xbeebedbf	-0.46079823
184	0x3c84a289	0.016190784
185	0xbcbd2292	-0.023087773
186	0xbdd7ca68	-0.10536653
187	0xbea7b61b	-0.32756123
188	0x4033d104	2.8096323
189	0x3e015e23	0.12633567
190	0x3da991c8	0.08279759
191	0xbcd0f5df	-0.025507865
192	0xbbb1d91c	-0.005427493
193	0xbf79c3fa	-0.9756466
194	0x3da2b527	0.07944708
195	0x3cd1b752	0.02560011
196	0x3d09423d	0.033510435
197	0xbc6c2468	-0.014412977
198	0xbea2b3ac	-0.31777704
199	0x3e13deba	0.14440432
200	0x3dc3ac4f	0.0955435
201	0xbf22d29a	-0.636026
202	0xbe9ccd47	-0.30625364
203	0x3e31af29	0.17351975
204	0xbd66f6dd	-0.05638777
205	0x3d383abc	0.04497789
206	0xbc60503e	-0.013691006
207	0xbfa9d999	-1.326953
208	0x3dde77ab	0.108626686
209	0x3dfcd027	0.123443894
210	0x3dac8939	0.08424611
211	0x3e9cf48c	0.30655324
212	0x3fab8cd2	1.340235
213	0xbfb4d10a	-1.4126294
214	0x3e4eafd3	0.20184259
215	0x3dcff277	0.101536684
216	0xbe263373	-0.16230564
217	0x3e2d2736	0.16909489
218	0x3ebd4c66	0.3697235
219	0xbddf7e3b	-0.109127484
220	0x3f060d33	0.5236389
221	0x3f678235	0.90433055
222	0x3d9ed984	0.077563316
223	0x3d6d80bb	0.057984095
224	0xbf58d00d	-0.8469246
225	0x3efbeea3	0.49205503
226	0xbf6e16f9	-0.93003803
227	0xbdb328a0	-0.08747983
228	0xbfe3858d	-1.7775131
229	0xbefa0e7f	-0.48839185
230	0x3dd9ea29	0.10640366
231	0x3ca9bddf	0.02072042
232	0xbdb318f2	-0.08744992
233	0x3dc9d375	0.09854785
234	0x3dd67061	0.10470653
235	0xbf0e59f4	-0.5560601
236	0x3f7f5d8c	0.99752116
237	0xbf2d285d	-0.67639714
238	0x3dc5e950	0.096636415
239	0x3f354582	0.70809186
240	0x3e6d51b4	0.23175699
241	0x3ef7c51c	0.4839257
242	0xbeae9d3d	-0.34104338
243	0x3e9acde7	0.30235216
244	0xbd797d10	-0.060910285
245	0xc0af0264	-5.469042
246	0xbd418695	-0.047247488
247	0x3ddd8965	0.108172216
248	0x3cda4189	0.026642578
249	0xbe06bcb3	-0.1315792
250	0xbdf1d5d2	-0.11808361
251	0xbdbe08cc	-0.092790216
252	0xbe742a7c	-0.23844332
253	0xbdd5086f	-0.10401999
254	0xbfb93d16	-1.4471767
255	0x3bdbeec5	0.006711813

hidden_layer_1.bias f4 [256]
0	0x3e722512	0.23646954
1	0x3ee32eea	0.4437173
2	0xbafc14f8	-0.0019232323
3	0x3becb785	0.0072240257
4	0xbd2f8f03	-0.042860996
5	0xbd159ffc	-0.036529526
6	0x3d8c0d1d	0.06838439
7	0xbe00bb6d	-0.12571497
8	0xbc443975	-0.011976589
9	0x3db60599	0.088877864
10	0x3d3f28d4	0.046669796
11	0x3c123128	0.008922853
12	0x3d169b74	0.036769345
13	0x3b83ced9	0.004022461
14	0xbd293241	-0.04130769
15	0xbd10f4cc	-0.035389706
16	0x3ec65926	0.3873989
17	0x3f235f7c	0.6381757
18	0x3de564a0	0.11200833
19	0x3dd18fc1	0.10232497
20	0xbc8cae42	-0.017172936
21	0xbbcae883	-0.0061922683
22	0xbc63a1ba	-0.013893539
23	0x3e91ea66	0.28499144
24	0xbc0d8af6	-0.008639088
25	0x3ca12678	0.019671664
26	0xbceb3f70	-0.028716773
27	0xbe023a55	-0.12717564
28	0x3ec832b3	0.3910118
29	0x3bdc0ded	0.0067155273
30	0x3c94d538	0.018168077
31	0xbcd2e2e3	-0.025742954
32	0xbcac5469	-0.021036344
33	0x3d15074c	0.036383912
34	0xbd31ffaf	-0.04345673
35	0x3f2daa86	0.67838323
36	0xbd0d72aa	-0.03453318
37	0x3cf04ad5	0.029332558
38	0x3cdfc184	0.027313955
39	0xbd7e2b6b	-0.062053125
40	0x3eaaf568	0.33390355
41	0x3b0b343c	0.002124085
42	0xbd94179f	-0.07231068
43	0xbcb1c425	-0.021699974
44	0x3d0b4b64	0.034007445
45	0x3df4f911	0.11961568
46	0x3f2d90b0	0.677989
47	0x3db216d0	0.086957574
48	0x3edc8f80	0.43078232
49	0xbd285805	-0.041099567
50	0x3ee6c751	0.4507394
51	0xbd388429	-0.045047913
52	0xbcf44fa7	-0.029823137
53	0xbd0a1be3	-0.033718
54	0x3f022461	0.5083676
55	0x3b7d1086	0.0038614585
56	0x3aa9c402	0.0012952092
57	0x3b806ca6	0.003919202
58	0xbd63dbd3	-0.055629563
59	0x3e0baaca	0.1363937
60	0xbcf783ca	-0.03021421
61	0xbbdde358	-0.0067714863
62	0x3e4a34f7	0.19746767
63	0xbc9e240e	-0.019304302
64	0xbce48e1d	-0.027899796
65	0x3ec486a6	0.3838398
66	0x3eac7feb	0.33691344
67	0xbdd10917	-0.10206812
68	0x3c68d6fc	0.0142114125
69	0xbd82b503	-0.063821815
70	0x3e910819	0.2832649
71	0xbc8639c3	-0.016384965
72	0x3e8f15e7	0.27946398
73	0xbd005af0	-0.031336725
74	0xbc0bdc55	-0.008536418
75	0xbaeb27a5	-0.0017940892
76	0x3cd3c1ef	0.02584931
77	0xbd00c83c	-0.03144096
78	0x3ef8058f	0.4844174
79	0x3cb1827c	0.021668665
80	0x3d0020f0	0.03128141
81	0x3e17b169	0.1481377
82	0x3d9c0a10	0.07619107
83	0xbbf1bb77	-0.007377084
84	0x3ee561be	0.44801134
85	0x3ccc199f	0.02491456
86	0x3ee15b0b	0.44014773
87	0x3ee1456b	0.43998274
88	0xbd073ed5	-0.033018906
89	0x3e5db0ab	0.21649425
90	0xbd5db98c	-0.05413203
91	0x3d0179b3	0.031610202
92	0x3d7b993a	0.061425425
93	0xbe3aca79	-0.182413
94	0x3c058953	0.008150416
95	0xbd077c40	-0.03307748
96	0xbdc3d86c	-0.095627636
97	0x3c889a06	0.016675007
98	0xbda737ef	-0.08164965
99	0xbc8ef8e8	-0.017452672
100	0x3e94509b	0.28967747
101	0xbd3ed73c	-0.046591982
102	0x3db25376	0.08707325
103	0x3e35196a	0.17685476
104	0xbd441f63	-0.047881495
105	0x3ebfcb20	0.3745966
106	0xbc61962a	-0.013768712
107	0xbd59db81	-0.05318785
108	0xbd303b74	-0.04302545
109	0xbda6cb28	-0.08144218
110	0x3ee6a323	0.45046338
111	0x3ecf72e1	0.40517333
112	0x3e60ddda	0.2195963
113	0xbc5c6871	-0.013452635
114	0x3f2d8db8	0.6779437
115	0x3cde9923	0.02717263
116	0xbc1619dd	-0.00916144
117	0xbdbc8f86	-0.092070624
118	0xbb57da53	-0.0032936528
119	0xbcb54f4f	-0.022132544
120	0xbd958915	-0.07301537
121	0x3eec6e45	0.4617788
122	0x3bb21597	0.0054347026
123	0x3e8b8c6b	0.27255568
124	0x3d9c3a54	0.07628313
125	0xba82f27d	-0.000999048
126	0x3d6d2232	0.05789394
127	0xbe81e34d	-0.2536873
128	0x3e80a58a	0.25126296
129	0xbb951bc7	-0.0045504305
130	0xbccec574	-0.025240637
131	0xbd53f71b	-0.05174933
132	0xbcaa35c2	-0.020777587
133	0x3e8c346a	0.2738374
134	0x3eb095a2	0.3448916
135	0xbced0632	-0.028933618
136	0x3ec1d7e5	0.37860027
137	0x3ea0e678	0.31425834
138	0x3dc75239	0.097324796
139	0x3cdc7484	0.026911028
140	0xbe8a12c6	-0.26967448
141	0x3e98d6f3	0.29851493
142	0xbd8cedd2	-0.06881298
143	0x3c455bb7	0.012045792
144	0x3c84a381	0.016191246
145	0xbc59be63	-0.013290021
146	0x3e98c989	0.2984126
147	0x3ca4b03a	0.020103563
148	0xbd2f080f	-0.042732295
149	0x3dbd1592	0.0923263
150	0x3e704e18	0.2346729
151	0x3eaf50e4	0.34241402
152	0xbda6f340	-0.08151865
153	0xbd074030	-0.0330202
154	0xba483980	-0.00076379627
155	0x3d9589f5	0.07301704
156	0x3f16c3d0	0.58892536
157	0x3ee69d0c	0.45041692
158	0xbce3ecdd	-0.027822906
159	0x3e879483	0.26480493
160	0xbd4eeeaa	-0.050520577
161	0x3efaf2e0	0.49013424
162	0x3c6975c7	0.014249272
163	0x3ec6774b	0.38762888
164	0x3e8f89a5	0.28034702
165	0x3e8a19b4	0.26972735
166	0xbd49a549	-0.049229894
167	0xbdd31d2b	-0.10308298
168	0x3ee6f16a	0.4510606
169	0xbd09a3bf	-0.033603426
170	0x3d02628c	0.031832263
171	0x3f168cd3	0.5880863
172	0xbcb1addc	-0.021689348
173	0xbd33da54	-0.043909386
174	0xbc29eb47	-0.010371036
175	0xbbc3970c	-0.005968934
176	0xbd96e680	-0.07368183
177	0x3ed2b141	0.4115086
178	0x3d09cee0	0.033644557
179	0xbd265a98	-0.04061374
180	0x3d1e8ab3	0.038706493
181	0xbd1d2780	-0.03836775
182	0xbd93a0ea	-0.07208426
183	0x3c63d218	0.013905071
184	0x3ebb1b8a	0.36544448
185	0x3c1cb0f6	0.009563675
186	0xbd2dbc93	-0.042416167
187	0xbda04fce	-0.078277215
188	0x3cd4faa9	0.02599843
189	0x3ed50676	0.41606492
190	0xbc942447	-0.018083705
191	0x3ed88f85	0.42296997
192	0xbc57adef	-0.013164028
193	0x3d18a6d4	0.037268475
194	0xbcd9b1d4	-0.026574053
195	0xbd8c3d38	-0.06847614
196	0xbc29d2c0	-0.010365188
197	0xbc898629	-0.016787605
198	0xbd4c82c9	-0.049929414
199	0xbd697430	-0.05699557
200	0xbcd77488	-0.026300684
201	0xbc814e27	-0.015784336
202	0xbe17b007	-0.14813243
203	0x3d3d8615	0.04627045
204	0xbda6fb53	-0.08153405
205	0x3c65ba16	0.014021417
206	0x3dd0238d	0.10163031
207	0xbcc30e19	-0.023810433
208	0xbcc4e8e5	-0.024036834
209	0xbcf319dc	-0.029675417
210	0xbcf78acd	-0.030217553
211	0xbd353b52	-0.044246025
212	0x3f021537	0.5081362
213	0xbdac7c5a	-0.08422156
214	0x3c4f307d	0.012645838
215	0x3de8824a	0.11352976
216	0xbd10f350	-0.03538829
217	0x3eda7468	0.42666936
218	0x3e082370	0.13294768
219	0x3d13cee6	0.036085986
220	0x3e81cfb7	0.25353786
221	0x3e988da0	0.2979555
222	0xbc888a51	-0.016667517
223	0x3e4837b8	0.19552505
224	0x3c9af935	0.01891766
225	0xbcd96676	-0.026538115
226	0x3ea4a218	0.32154918
227	0xbc9b3ef6	-0.01895092
228	0x3ed43c30	0.4145217
229	0x3e9d13e8	0.3067925
230	0x3b1111d1	0.0022135864
231	0xbc994e77	-0.018714173
232	0x3ca6b843	0.020351535
233	0xbd0e7e82	-0.034788616
234	0x3dc2beb8	0.09509033
235	0x3ce292e7	0.02765794
236	0xbdc07644	-0.093975574
237	0x3ed3d617	0.41374275
238	0xbd2b4022	-0.04180921
239	0x3ebdb049	0.37048557
240	0xbc993ebe	-0.018706676
241	0x3e9b4b99	0.30331114
242	0xbd32e5b7	-0.043676104
243	0xbd6fff26	-0.058592938
244	0xbccf0da0	-0.025275052
245	0x3ea682d0	0.32521677
246	0xbc8a59f1	-0.01688859
247	0xbd2d4ee4	-0.042311564
248	0x3dda0d6d	0.10647092
249	0xbc80f3b8	-0.015741214
250	0xbcdcfa2e	-0.026974764
251	0xbd00f094	-0.031479433
252	0xbd4437bb	-0.04790471
253	0x3b8c8c7e	0.004289209
254	0x3b6c8d64	0.0036095018
255	0xbd46ab89	-0.048503432

output_layer.weight f4 [1, 256]
0	0xbff858cc	-1.9402099
1	0xbeb84b81	-0.35995105
2	0x3d105b36	0.035243236
3	0xbc2b3759	-0.010450208
4	0x3c0dd7dc	0.008657422
5	0x3cced8f0	0.025249928
6	0xbec434b6	-0.38321465
7	0x400b7536	2.179029
8	0x3d369044	0.044571176
9	0xbf54ae71	-0.83078676
10	0xbfdb06c9	-1.7111446
11	0xbb770e89	-0.0037697873
12	0x3cfb1c2f	0.030653087
13	0xbf446852	-0.7672168
14	0x3cfafe6b	0.030638894
15	0x3c12cac0	0.008959472
16	0xbf924b67	-1.1429261
17	0xbf22b312	-0.6355449
18	0xc09a8707	-4.828983
19	0xbd27cfce	-0.040969662
20	0xbcb4f149	-0.02208771
21	0x4115ca63	9.361911
22	0x3c657f9a	0.014007473
23	0xbf773849	-0.9657026
24	0xc01adb34	-2.419629
25	0x3cfbff1a	0.03076129
26	0x3c4a08a2	0.01233116
27	0xbee11533	-0.43961486
28	0xbf1d77e4	-0.61511064
29	0xbcda4a01	-0.026646616
30	0x3c58ed07	0.0132401055
31	0xbfdcca5e	-1.7249258
32	0x3d3e667a	0.046484448
33	0x3ccdc679	0.025119053
34	0x3d03f15f	0.03221261
35	0xbf87d1c9	-1.0610896
36	0x3c6819bf	0.014166295
37	0x3bcbb20e	0.006216294
38	0xc093fc96	-4.6245832
39	0x3d1335de	0.035940044
40	0xbfb18803	-1.3869632
41	0x3d27f041	0.04100061
42	0xbe5c6908	-0.21524441
43	0xbaf2e1a2	-0.0018530379
44	0x3ca663f5	0.020311335
45	0xbe82972b	-0.25505957
46	0xbf3311a6	-0.69948804
47	0xc0590741	-3.3910677
48	0xbec57742	-0.3856755
49	0x3b06db77	0.0020577589
50	0xbf07b2ce	-0.5300721
51	0xbcac3aa5	-0.021024058
52	0x3d0ea875	0.034828622
53	0x402aad6a	2.6668344
54	0xbe1c2772	-0.15249422
55	0xc01c69ab	-2.4439495
56	0x396e5879	0.00022730407
57	0x3cd58031	0.026062103
58	0xbfd96623	-1.6984295
59	0xbda330e8	-0.079683125
60	0xbf9bc86d	-1.217054
61	0xbbb8b75a	-0.0056370916
62	0xbfd1c995	-1.6389643
63	0x3c252559	0.010079705
64	0x3c941747	0.018077506
65	0xc00284f8	-2.0393658
66	0xbf4d9ed5	-0.80320483
67	0xbcd833da	-0.026391912
68	0x3b0aa79a	0.0021157027
69	0xbb0f6335	-0.00218792
70	0xbea7d683	-0.32780847
71	0x3c3e48cb	0.011614035
72	0xbfbf8535	-1.4962527
73	0xbc9a7bfd	-0.01885795
74	0x3c1baf89	0.0095023
75	0x3c1a024b	0.009399961
76	0x3cd3a8a0	0.025837243
77	0x3bb0a9b0	0.005391322
78	0xbe8510ba	-0.25989324
79	0x3c61f171	0.013790474
80	0x3ccb5a9c	0.02482348
81	0x4080c43c	4.0239544
82	0xbf628763	-0.88487834
83	0x3b9abd5d	0.004722281
84	0xbfe4f580	-1.7887421
85	0xbc1c06c5	-0.009523098
86	0xbeb436cc	-0.35198057
87	0xbf650ff0	-0.89477444
88	0xb95584b6	-0.00020362702
89	0xbf4a39b7	-0.78994316
90	0x40797444	3.8977213
91	0x3d01ce76	0.031691037
92	0xbf1c4125	-0.610369
93	0x40aa010d	5.3126283
94	0x3d29d272	0.041460462
95	0x3d63be5f	0.055601474
96	0x3bac016b	0.0052491925
97	0x3d3ba1ee	0.045808725
98	0xbb996b13	-0.0046819537
99	0x3d4485f9	0.04797933
100	0xbfff914a	-1.9966214
101	0x3cd18316	0.025575202
102	0xbeb5aed7	-0.35484955
103	0xc1033bf2	-8.202135
104	0xbae2e669	-0.0017311099
105	0xbecad4dc	-0.39615524
106	0xc03f4bae	-2.9889941
107	0xbc1f8aac	-0.009737652
108	0x3c4b634b	0.01241381
109	0xbd4456a1	-0.04793418
110	0xbed693a7	-0.41909525
111	0xbe389c69	-0.18028416
112	0xc023fc08	-2.5622578
113	0xbff84e0a	-1.9398816
114	0xbeb6a3bb	-0.3567179
115	0x3c8af6b9	0.01696335
116	0x3bf57cf3	0.0074917017
117	0xc01b602c	-2.4277449
118	0x3c65afaa	0.014018932
119	0x3bd18ec1	0.0063951914
120	0xbe737e56	-0.23778662
121	0xbeddff24	-0.4335872
122	0x3ca25054	0.019813694
123	0xbe5b4e4f	-0.21416591
124	0x3bff7cad	0.007796845
125	0x3c578b00	0.013155699
126	0xbd3f47ad	-0.046699215
127	0xbe281f48	-0.16418183
128	0xbf87c27f	-1.060623
129	0xbb554cca	-0.003254699
130	0x3bef32e1	0.0072997664
131	0x3b82a558	0.0039869957
132	0x3d03aa1c	0.03214465
133	0xbf844f64	-1.0336728
134	0xc0336b65	-2.8034298
135	0x3cb53c2b	0.022123417
136	0xbe8dca46	-0.27693385
137	0xbf5ffaad	-0.87491876
138	0xbf181a3f	-0.5941505
139	0x3c4d3f93	0.012527364
140	0xc006c145	-2.1055462
141	0xbee45ed3	-0.44603595
142	0x3d08c3c0	0.033389807
143	0x3d470113	0.04858501
144	0xbb259d79	-0.0025270863
145	0xbc254aa1	-0.010088594
146	0xbf964516	-1.1739833
147	0x3c95fa70	0.018307894
148	0x3cc5eed6	0.024161737
149	0x411d46ee	9.829817
150	0xbfe00969	-1.7502872
151	0xbf3c582e	-0.7357205
152	0xbc90e786	-0.017688524
153	0x3c9c92ea	0.019113023
154	0x3d2ca9ac	0.042154
155	0xbe8fb7ca	-0.28069907
156	0xbdd2dd07	-0.10296064
157	0xbf205c48	-0.6264081
158	0x3cd7424b	0.026276728
159	0xbf8147dc	-1.0100055
160	0x3b811e63	0.00394039
161	0xc0117ec7	-2.2733629
162	0x3c224878	0.009904973
163	0xbe0acedf	-0.13555478
164	0xbe051dcf	-0.12999652
165	0xbeb059b0	-0.34443426
166	0x3d617ac6	0.055048726
167	0xbb0d4d47	-0.0021560953
168	0xbfe07be5	-1.753781
169	0x3d06d9e8	0.032922655
170	0x3bb8839c	0.0056309234
171	0xbf42125b	-0.7580926
172	0x3d2dfee8	0.042479426
173	0xbcbc4eac	-0.022986732
174	0xc10e935b	-8.910975
175	0x3d1c5aa2	0.03817237
176	0x3cd12429	0.025529938
177	0xbf9cbe00	-1.2245483
178	0x3d36f3e9	0.044666205
179	0x3d5cc960	0.053902984
180	0x40a3d72b	5.1200156
181	0x3d3bf0da	0.04588399
182	0x3bf979e4	0.0076134074
183	0x3cd4b939	0.025967227
184	0xbe80d50d	-0.25162545
185	0x3c9ec585	0.019381294
186	0xb8a52432	-7.874555e-05
187	0xbcabc7a6	-0.020969223
188	0x3ca20e3a	0.019782174
189	0xbf88ee99	-1.0697814
190	0xbb0704ab	-0.0020602148
191	0xbf348181	-0.7051011
192	0x3c100b7b	0.0087918
193	0x3c16328a	0.009167323
194	0x3c44927d	0.011997816
195	0xbc46b504	-0.012128118
196	0x3d0d8b65	0.034556765
197	0xbb6d0ab9	-0.0036169721
198	0x3d158cb3	0.036511134
199	0xc0121c07	-2.2829607
200	0xbd466fed	-0.048446584
201	0xbca9de43	-0.020735865
202	0xc0bd9f1e	-5.9256735
203	0xbe17b4e7	-0.14815103
204	0xbc5504f6	-0.013001671
205	0x3cf71b1a	0.03016429
206	0xc10b9bb6	-8.725515
207	0x3b3e0898	0.0028996821
208	0x3cd5deb6	0.026107173
209	0x3d567564	0.052358046
210	0x3bdb9e99	0.006702256
211	0x3c8575af	0.016291467
212	0xbe8aa2d5	-0.27077356
213	0x3c1d82d7	0.009613714
214	0x3c8ccb8a	0.017186899
215	0x3cff8d88	0.031195417
216	0x3d4c083f	0.04981255
217	0xbf059bd1	-0.5219088
218	0xbe8b0ed1	-0.27159742
219	0x3b6dd8a9	0.003629247
220	0x417aa28b	15.664683
221	0xbfc5d8c3	-1.5456775
222	0x3c7d1c2e	0.015448613
223	0xbf81ad29	-1.0130969
224	0xbd3e697b	-0.046487313
225	0x3c27c266	0.010239219
226	0xc01b8518	-2.4299984
227	0xbaa3411b	-0.0012455316
228	0xbf88b63f	-1.0680617
229	0xbdf0bde2	-0.11754967
230	0x40cf318e	6.474799
231	0x3d521891	0.05129296
232	0x3cc4543d	0.02396595
233	0xbc9c6669	-0.019091802
234	0xc0786448	-3.8811207
235	0x3d1bb2d9	0.03801236
236	0xc0ab0433	-5.3442626
237	0xbf73fddc	-0.95309234
238	0x3d66ea43	0.056375753
239	0xc08c4a84	-4.384096
240	0xbba9b404	-0.0051789302
241	0xbebd127e	-0.3692817
242	0x3ccb57ce	0.024822142
243	0x3c944a24	0.01810176
244	0x3bccb52a	0.0062471824
245	0xbf225532	-0.6341125
246	0x3c27f8e7	0.010252214
247	0x3c9f0b16	0.019414466
248	0xbf465a75	-0.77481776
249	0x39524812	0.00020054009
250	0xbb577a47	-0.003287928
251	0xbcdb708e	-0.026787069
252	0x3c18297e	0.009287236
253	0x3cabe630	0.020983785
254	0x3ccb85ea	0.024844129
255	0x3c4efbba	0.0126332585
